DatasetCondensation-master/TEST_IPYNB/autoencoder_all_2.pt (torch, 197389 bytes, 12 tensors)

weight f4 [12, 3, 4, 4]
00000000: 80ed b23d 82e1 00bd 28ba 9b3e a8a4 9ebd
00000010: 2934 0bbe e7b5 15bf 7a2e 863e 9c29 3a3e
00000020: 2377 5abd d545 c7be dedd c03e 7add e5bd
00000030: 95b3 603d fc79 e73d a692 e33d 81e5 abbe
00000040: 2f3d 4e3e 0c3f 963d ca63 ce3e 4f44 dabd
00000050: baf4 c3bd b498 27bf cb8a 5d3d ba3a 863c
00000060: 6fb5 fe3c e713 fbbd 3fe2 513e fba6 033e
00000070: 7ceb 723d 7512 393e de8e 9a3e 18b4 64be
00000080: 1cd8 b7bc 4af6 e1bc d935 37be d072 0fbc
00000090: 9e4b b2bd 657c 41be 3c8e a2be 3971 3b3c
000000a0: 4a2f 513d 91fb 14be 56e3 45be 0247 6a3e
000000b0: eb39 663c 1363 5d3d 961f 58be fd0d 893e
000000c0: bfea f43d 579b c63b cfee 4b3b 72d0 2abd
000000d0: 5d61 83bd eee7 0abe ce2a 6b3d 75e0 293d
000000e0: 18a8 17bd ffac ef3c 384e 813e 48d9 58bd
000000f0: 7c87 41bc 0fcc fcbc 008f adbb a692 13bc
00000100: fb9a 4abd cf10 1abd 028d 82bd e671 8f3c
00000110: 1d0b 49bd f052 9a3d c744 7e3e d3d8 8abc
00000120: 1584 873d c077 a53d b40d 213f 4a57 333c
00000130: a642 89bd 4dbb b0bd e0f1 553d 1c15 973d
00000140: 949c 263c 87c2 f7ba ea15 ddbd d216 493c
00000150: f528 53bd cd37 c3bd 7910 0a3e a863 11be
00000160: f903 d73c 8e8a 293d 0169 063f 237c 013d
00000170: 61fb 4c3d 8fdd a03d 1f5f ae3d ecbe 3cbe
00000180: 8b9c 9fbd 238f 503e 8ca9 57bc bfba 4a3e
00000190: 5b03 9b3e 05f5 e43d 774a 98be baa4 093b
000001a0: 1611 8e3d 14f9 a9be bc96 51be d280 aebc
000001b0: 7e69 df3e 82bb 4cbd 2948 1fbe 3616 40bc
000001c0: 6655 1dbe 3994 bc3c 77c3 f6bc b156 903d
000001d0: 9601 8b3d ef7b 2ebe 59f9 ebbd b9f0 14be
000001e0: 08c3 0ebd 21bc 46be 766d aa3e 2516 7dbe
000001f0: ac55 16be 3354 37bd 7cf5 f0bd eae1 14be
00000200: 4145 643d e33a 0c3e cf73 8dbd f393 9a3d
00000210: 207a 073e 684a 89be f578 28be 7a59 94bd
00000220: 0216 5ebc cba4 0bbe 0a54 d23d 396a aabd
00000230: db17 adbd 4186 a6bd 631d a4bc 5734 c2bd
00000240: 4765 03bd 2fdf 9f3d ef79 9dbb 122b 3ebe
00000250: 8bc3 2b3d 16a1 ca3d 2a0f af3d 92e6 61bd
00000260: 351b 133d cb51 2f3c 9e73 e33d e107 6b3d
00000270: ad43 683d 6d85 c6bd 0b29 013e e8ff fcbc
00000280: 2a62 f4bd e469 3b3c 7c55 8cbc 6ef8 303b
00000290: bb15 933d fc51 5bbd e5c4 9f3d 6b08 5dbc
000002a0: 2d2a 9f3d 6f80 29be b2e5 813d 7041 603d
000002b0: 6d5a 13bd 244b 383e c517 a93d 00a7 5b3c
000002c0: ec7c d0bb 78c9 1f3d 32dc d9bd 8c36 453d
000002d0: 79aa dc3d e618 a43d 7c0f 063e 8480 9aba
000002e0: df41 193e 3fac 43be 631d 9abd 4e16 ec3d
000002f0: 1ff6 e23d 7ef7 303e 298e 3ebd c8b4 ecbd
00000300: 5658 463d 3fbd 153b 5a4a 74bd 16af b0bc
00000310: 1231 f6bc 6767 90bd a0ba 4d3d 5756 483d
00000320: 2ed5 d43c 8450 833d d10f 4cbd cd98 523d
00000330: dd73 08be bad4 4f3d dab3 0a3d d03e dd3c
00000340: f4c4 b8bb 8f46 acbd 51a7 af3d c1ba 77bb
00000350: e3a9 dfbd ee59 c33d face 86bc 7a75 08bd
00000360: 58ff 743c 1015 02bc 9f1d 01bf 2ba6 1a3c
00000370: 1e06 1d3c cd83 8f3c ef72 1a3d 630a 8abb
00000380: dd5f 66bd 5c13 893c 7beb db3d 3613 59bd
00000390: 2a38 773d fceb 2f3d e2dc 07bd dee3 993d
000003a0: 2868 ee3a f0c7 da3d 3141 38be 8cc0 2bbd
000003b0: da71 c33d b215 0abd ab92 c5bd 2889 673d
000003c0: b4dd 4b3e 48ee 36be 8f34 94bd 87ab c03d
000003d0: e277 96be e521 afbd 160d 9abe 19b4 46be
000003e0: f1a5 d0bd a27e a3be 4928 61bd 2df8 123e
000003f0: 25ac 3a3e fc05 9abd 9f51 2a3e a2aa 37bc
0.08736706 -0.03146506 0.30415463 -0.077462494 -0.13594116 -0.58480686 0.26207334 0.18179935
-0.053336274 -0.38920465 0.3766927 -0.11223884 0.054858763 0.113025635 0.11111955 -0.33573535
0.20140527 0.07336244 0.40310508 -0.1065756 -0.09568162 -0.6546738 0.05408744 0.016385425
0.031092374 -0.122596554 0.20496462 0.12856667 0.059306607 0.18073447 0.30187124 -0.22334325
-0.022441916 -0.02758326 -0.17891635 -0.008755401 -0.08705829 -0.18895109 -0.3174914 0.011440569
0.05107049 -0.1454909 -0.19325003 0.2287865 0.014051895 0.054049563 -0.21105799 0.26768485
0.11958837 0.0060609984 0.0031117683 -0.041702695 -0.06415055 -0.13565037 0.05741387 0.041473825
-0.03702554 0.029257296 0.2525499 -0.05294159 -0.011812087 -0.030859021 -0.005296588 -0.009007132
-0.049464207 -0.037613686 -0.06374551 0.017510366 -0.049082864 0.0753535 0.24830924 -0.016949093
0.066169895 0.08079481 0.62911534 0.010946104 -0.06702165 -0.08629475 0.052232623 0.07377073
0.010169167 -0.0018902578 -0.107951954 0.012273507 -0.05155273 -0.095321275 0.13482846 -0.14198172
0.026247011 0.0413919 0.52503973 0.031612527 0.05004442 0.07854759 0.08514237 -0.18432206
-0.0779353 0.20367102 -0.013162982 0.197978 0.30275998 0.11179546 -0.29744312 0.0021002726
0.06936853 -0.33197844 -0.20467657 -0.02130166 0.43635172 -0.04998351 -0.1555487 -0.0117240455
-0.15364608 0.023019897 -0.030122502 0.07047785 0.06787412 -0.17039464 -0.11522169 -0.14544953
-0.034853965 -0.19407703 0.33286637 -0.24715479 -0.14681119 -0.044758033 -0.117655724 -0.14539304
0.05573011 0.13694339 -0.06906854 0.0754775 0.1323018 -0.2681458 -0.16452391 -0.07243629
-0.013555052 -0.13637082 0.102699354 -0.083210416 -0.08451816 -0.08131076 -0.020033544 -0.09482639
-0.032079007 0.07806241 -0.0048057954 -0.18571118 0.04193453 0.09894006 0.08547814 -0.05515153
0.03591462 0.010700653 0.111060366 0.05738056 0.056705166 -0.09693418 0.12613313 -0.030883744
-0.11932786 0.0114388205 -0.017130606 0.0027003544 0.07181879 -0.053544983 0.078012265 -0.0134907765
0.07771716 -0.165529 0.06342639 0.054749906 -0.03597491 0.17997414 0.08256487 0.013406515
-0.006362548 0.039010495 -0.10637702 0.048147723 0.107747026 0.080125615 0.13091844 -0.0011787568
0.14966534 -0.19108675 -0.07525136 0.11527692 0.110821 0.17281911 -0.046522293 -0.11557919
0.048424087 0.0022848395 -0.05964122 -0.021567862 -0.030052695 -0.070509724 0.050226808 0.048910465
0.025980558 0.064118415 -0.04981977 0.051415253 -0.13325448 0.05073998 0.033862926 0.02700749
-0.005638713 -0.084118955 0.08576835 -0.0037800523 -0.10921075 0.09538637 -0.016456116 -0.03331516
0.014953457 -0.007939592 -0.50435823 0.009439032 0.009583978 0.017518902 0.037707265 -0.004212664
-0.056243766 0.016732864 0.10738274 -0.052996837 0.060356297 0.04294966 -0.033169635 0.07514165
0.0018189 0.10682666 -0.17993619 -0.041931674 0.095432 -0.033712097 -0.09647115 0.056527287
0.19908792 -0.17864335 -0.07236587 0.09407716 -0.29388338 -0.08551387 -0.3008811 -0.1940464
-0.10187901 -0.3193255 -0.05497006 0.14352484 0.1822973 -0.07520673 0.16632698 -0.011210116

bias f4 [12]
00000000: 76d4 f8bd 2c73 a53e 0286 cabe e0be ef3e
00000010: 58c1 3a3f 9111 0cbf f95c de3e 3906 163f
00000020: 6782 cebd 36d9 d93e fba6 e23e 9ea8 bb3e
-0.12149899 0.32314432 -0.39555365 0.46825314 0.7295127 -0.54714304 0.43430308 0.58603245
-0.10083466 0.4254853 0.4426802 0.36652082

weight f4 [24, 12, 4, 4]
00000000: b5cf 583d 3745 5f3d 7c59 f03d d557 f23d
00000010: ed2c fe3d 9f12 07be a233 1dbd 324d d9bb
00000020: a719 1c3e e368 aebc 209e 993c a754 93bd
00000030: c2a2 7e3c f634 e6bb bd6c 473d 2b8c 04bd
00000040: 4e96 fd3c 68a5 153d 0902 4c3d 6312 7fbc
00000050: d726 7f3c e016 c63d 9b43 863d 363d 0d3d
00000060: 50e0 4e3c 74b0 c53d 01fa 213e a7ef 963d
00000070: 49d6 8ebd ca9a a03d 2c06 a2bd 95d0 1e3d
00000080: ce7d 1a3d 43ce d43b 965a 80bd 7a35 fd3d
00000090: f77e 8abd 6fb0 733d ece2 65bd 2218 9fbc
000000a0: 93d3 93bc dd72 aebd 75fe 24be 2228 7a3d
000000b0: ac16 78bc 633f c33d cac9 5eba 8eba d1bb
000000c0: 1823 85bd 4880 8f3c 762f 8cbb ec0a a33b
000000d0: 8f84 84bc dda5 333b 8930 013d a99e 2e3d
000000e0: 09c9 6e3d 5c89 1fbd 23ee a23b 436b ba3c
000000f0: c3c6 86bc a42b 71bd 2093 4cbb b619 443b
00000100: c9bf 233d 3438 5ebc a3b6 c03d 29e1 693d
00000110: ff4a de3c 9a08 98bd 93b9 c9bc a4da b1bc
00000120: d51d d5bc 2f02 713c 0a34 9dbd e5fd 5d3c
00000130: b8af 8e3d f6c4 10bc 6c15 5d3d 0041 b6bb
00000140: 32a3 5a3c 0392 dcbb 156c 0a3d b888 673c
00000150: 69b2 a6bb 0007 c0bc 641b 0abe 22d2 a5bd
00000160: eaff b5bd 73dc fcbd 1e5a 0bbd e1d3 573b
00000170: ecd5 ecbb 0e4b d7bd 77d1 1b3d 44fd b4bc
00000180: 5d83 8a3c 245c 34bc 61b9 5cbc c228 8fbc
00000190: ac7c 4b3d df6f 333e 5b0e 403d abae 3f3d
000001a0: 0f02 0fbe 3e04 153e c4e8 ecbc b03d 19bd
000001b0: 6143 14be 6641 693d bbf9 34bd 7b8a e6bc
000001c0: 44c2 2bbc 9f1d ac3b 1cc8 b23c dc91 00bc
000001d0: 70e7 803d 50d7 b4bb 0a16 0dbd b75a 82bd
000001e0: 7824 ddbd 3486 683d 9d24 88bd c04e cebd
000001f0: 9d57 3bbc 5411 d2bc d865 ae3d 5a32 3bbd
00000200: 2ad0 0abd c4df ea3d a076 aabd e6fc 0abd
00000210: 59e8 91bd 3321 f9bd 99fa 5ebd 91e9 dc3c
00000220: 228b 323d 7f80 923c 5644 b3bc 5cbf 993d
00000230: 323a 3d3d fabb 2abb 84b8 703d 4272 a23b
00000240: f27b 31bc 0459 36be 94f0 bebc 2405 6b3d
00000250: 610a 983d bf3c 8c3e 12ad 533d a665 12bb
00000260: 4b11 bd3d 4246 073e 878e 1c3e f92d 34bd
00000270: 15d2 08bd e5aa c23d c52d 4bbd b69d 4abd
00000280: 7e7d 2d3d 3571 593d 2440 683c de4a a0bd
00000290: ac82 babd afae 2e3e 2353 073e d150 fb3b
000002a0: f4ad 263d 82f2 3d3e 7958 263e 1662 803d
000002b0: b99f f53c f7a8 1bbb 604c a7bd 1ae2 ea3c
000002c0: 57eb c13c 5164 dfbc 8ba6 5dbc bb67 953d
000002d0: 8cfc 88bd d2e9 b5bc 363b 1ebd c4d3 183d
000002e0: 5365 a43d 2840 9c3d cbb5 4c3d b07b cdbd
000002f0: 39cf 1ebd e7d5 d53d 8e29 77bc aeee 693b
00000300: a8fb 02bd 8513 a03e 6f24 223e de2a 86bc
00000310: f323 5b3d 83a7 f83d 709b ee3d 7e97 f13c
00000320: d8d5 673d ca3e 83bc 32f5 05be f0ed 21be
00000330: 8e87 433d 0e8c 8dbd e396 b0bb 3038 babb
00000340: ef57 20bd 7578 8d3d 1875 0fbd 349d 72bd
00000350: 1f13 823d 6876 453e 0a37 d5bd 5827 d5bd
00000360: adc3 643d a754 39bf 14dd 37bf 953f 853e
00000370: 8c38 e8bd bebf 9f3c 257f 003e 7ded e83d
00000380: 71a1 ccbc 0da3 fdbd b7a0 dbbd 6e50 35bd
00000390: 16a9 ad3c 8705 eebc f59c a7bc 35eb 90bd
000003a0: c4f8 053d 3081 1d3e b680 a8bc 766a 77bc
000003b0: 76bd 753d 21d0 bd3d c923 ef3c 5cc8 40bd
000003c0: 32fd 56be 396f f03d bc88 663e 54cf 83bd
000003d0: 74cb 59bd 1bf8 94be b3e9 863e 8fc9 55be
000003e0: 32fe abbe e105 c53e 2e3c af3e e83d 9dbd
000003f0: 016e 19bd 39c1 28be e837 d1bd ccc1 0bbd
0.05293246 0.054509368 0.11735818 0.11833159 0.12410913 -0.13190697 -0.03837932 -0.006631517
0.1524416 -0.021290248 0.018752158 -0.071938805 0.015541734 -0.0070253564 0.048687685 -0.032360237
0.03095546 0.036534697 0.04980663 -0.015568349 0.015573225 0.09672332 0.065558635 0.034482203
0.012626722 0.096527964 0.15818025 0.07369929 -0.069744654 0.07842024 -0.079113334 0.038773138
0.037717633 0.006494315 -0.06267278 0.123637155 -0.06762498 0.059494432 -0.056124613 -0.019420687
-0.018045222 -0.08518002 -0.16112693 0.06107343 -0.015142124 0.095335744 -0.0008498697 -0.006400413
-0.06500834 0.017517224 -0.0042781187 0.004975667 -0.01617649 0.0027412095 0.031540427 0.04263178
0.05829719 -0.038949355 0.0049722358 0.022756224 -0.016452199 -0.05887951 -0.0031215623 0.0029922551
0.039977822 -0.013563205 0.09409835 0.057099495 0.02713537 -0.074235156 -0.024624621 -0.021710701
-0.026015202 0.014709993 -0.07675941 0.013549303 0.069671094 -0.008836022 0.053975508 -0.005561948
0.013344573 -0.006731273 0.03379448 0.014131717 -0.005087186 -0.023440838 -0.13487011 -0.0809672
-0.08886702 -0.12346735 -0.03402149 0.0032932686 -0.00722765 -0.105123624 0.038041558 -0.022093423
0.016908342 -0.011008296 -0.013471932 -0.01747549 0.049679443 0.17523144 0.04688869 0.046797436
-0.13965629 0.145524 -0.028919585 -0.037412345 -0.14478828 0.056947134 -0.044183474 -0.028142205
-0.010483328 0.0052525545 0.021823935 -0.007847276 0.06294143 -0.0055188313 -0.034444846 -0.06364959
-0.107979715 0.05676861 -0.066476084 -0.10073614 -0.011434463 -0.025643028 0.08515519 -0.045702316
-0.033889927 0.11468461 -0.08323407 -0.03393259 -0.07124395 -0.121645354 -0.054438207 0.026966842
0.04358972 0.017883537 -0.021883171 0.07507202 0.046198077 -0.0026051984 0.058769718 0.0049574682
-0.0108327735 -0.17807394 -0.023308076 0.05737795 0.074238546 0.27390096 0.051678725 -0.002233842
0.09231814 0.13210395 0.15288745 -0.043989155 -0.033403475 0.09505252 -0.049604196 -0.04946681
0.042356007 0.05308648 0.014175449 -0.0782678 -0.09106955 0.17058824 0.13215308 0.007669546
0.04069324 0.1854954 0.16244687 0.062687084 0.029983388 -0.0023751834 -0.08168864 0.028672267
0.02367179 -0.027269514 -0.0135284765 0.07295176 -0.066887945 -0.02220622 -0.038630687 0.03731133
0.080271386 0.07629424 0.04997806 -0.10033357 -0.03877184 0.10441189 -0.015085591 0.0035695243
-0.03197828 0.31264892 0.15834211 -0.016377863 0.05350108 0.12141325 0.11650741 0.029491182
0.05660042 -0.016021151 -0.13081816 -0.15813422 0.047736697 -0.06911479 -0.005389081 -0.0056829676
-0.03914636 0.06907741 -0.03502378 -0.05923195 0.06351303 0.1928345 -0.104108885 -0.10407895
0.055850673 -0.72394794 -0.71821713 0.26025072 -0.113389105 0.01950061 0.12548502 0.11373422
-0.024979325 -0.12384615 -0.10724013 -0.044266157 0.02119879 -0.02905537 -0.020460585 -0.07076112
0.032707945 0.15381312 -0.020569187 -0.015101066 0.059995137 0.09268213 0.029191868 -0.047066078
-0.20995024 0.11739964 0.22513098 -0.06436029 -0.053172544 -0.2909554 0.26350173 -0.2087767
-0.33592373 0.38481048 0.342256 -0.07677823 -0.037458424 -0.16479959 -0.102157414 -0.034120366

bias f4 [24]
00000000: 359a 8cbe 6cc4 a23e 49d7 053d 19fc c03e
00000010: 18a0 81be b073 ad3e e612 983e ad42 b73e
00000020: fc5e a83e 1cf8 a63e 0b8b eb3d b689 9d3e
00000030: f191 9cbe 1740 b13e ab73 063f 84c7 7fbe
00000040: 08a9 c73e ed4b b83e 0b4a 973e e7c1 b13d
00000050: 1046 8abe 03fa 8e3e d2b6 1d3f eb8c c73e
-0.274614 0.31790483 0.032676015 0.37692335 -0.25317454 0.33877325 0.29701918 0.35793057
0.32884967 0.32611167 0.1150113 0.30769128 -0.30580094 0.3461921 0.52520245 -0.24978453
0.38996148 0.35995427 0.29548678 0.08679562 -0.27006578 0.2792512 0.61607087 0.389747

weight f4 [48, 24, 4, 4]
00000000: b461 803c 6971 033d c7ed 98bd fc8c bf3b
00000010: b812 683d 3502 b73d 5a6a d13d 7ee2 b13d
00000020: 10ca 58bb 0813 febd da94 0fbd 7406 203e
00000030: 7b37 eb3c db6f fb3d 5f07 b53c b8cf 9ebc
00000040: 988e 0ebe 027c 9d3d 6d12 103e 09ef 4cbc
00000050: 847c 123e 5948 143e a183 da3d f6f6 acbd
00000060: 1c75 8a3c a629 9bbc 0acf 143d 50d6 823d
00000070: 131c 373e 57e1 09be 9b11 513d 8ee6 63bc
00000080: 636f 50bd 85f6 c13d e5a1 eebd 224a 5fbd
00000090: bb36 e7bd f01c 7ebc f4b3 b6be 1c28 b23c
000000a0: 8a33 953d fc8f 0e3e 4d62 633e 1b1e 4b3c
000000b0: 5533 98bb c829 333d 6d47 a3bd f145 813d
000000c0: 8c37 843d 7432 533c 3b38 d43d f3a4 40bb
000000d0: 7d41 8d3c d678 0c3d 856f 7e3e 6f5c acbd
000000e0: ac7c 1b3e 216a 743e 223b cd3d fcbf 90bd
000000f0: 0073 03bd 328e 28bd 9ee2 0e3c 2673 62bc
00000100: 6963 2f3c aa92 63ba 9f2f 953c e403 3fbd
00000110: 8303 443d 3929 07be 144a 2e3e 510e d53d
00000120: 1a8f cb3c fe0f 33be 9c85 2c3d 99d9 9b3d
00000130: 819a 0dbd 2efa 32bd 7d95 193d a531 253d
00000140: 2699 f6bc f865 f73d 88d8 b43d 0efd 00bd
00000150: 25c6 41bb 4171 1abd 6eac 153e faeb 67bc
00000160: cdb2 1f3c 7e46 6f3e d569 aa3d 4b42 0ebe
00000170: b82b a5bd 247e 20bd 4cec dabd 12aa bcbb
00000180: 9b5b 7ebb ea13 cdbd af29 8d3d 14ba 2dbd
00000190: da84 e03d a0e3 463e 7833 b13e 3150 afbd
000001a0: 20c8 3abd f9f2 bcbc 5322 4bbe 4fd2 44bd
000001b0: 8d1f 40bd 4117 993c a895 b43c ae2e b6bc
000001c0: 047e cc3b 2cd9 973d 0ba3 bbbd af1d dfba
000001d0: adb5 9cbc 714b 843e 63f9 18be 631a 55bd
000001e0: 195f 683c 268a c3bd a392 e3be 3846 b1bc
000001f0: f404 153d 1bff 47bc 0ed3 093e a997 823d
00000200: abc1 5ebc a76a 453d 9ed7 e13d b91c d23d
00000210: ee77 f6bc d036 bcbd c50f c83b 45ca 403e
00000220: 2314 34bc a1c8 06be f84b 3d3e 64e3 2cbd
00000230: 5e04 9dbd e30e c9bc dd7c 09bc 3833 473d
00000240: c76e 143d 5b50 ffbc 1bd4 c1bc 63de 683d
00000250: 3463 78bd 5ee5 043e 5646 673e 009a 573e
00000260: 486d 2fbb f046 203e bf09 29be 4d59 20bc
00000270: f5e1 043d 5088 053c 7c5e ef3d a286 5fbc
00000280: 8220 fabd 1ae2 403d 6750 84bc 709c ea3a
00000290: 7c1d 263d 4acf 8abc 449b 5bbd 861e a8bd
000002a0: de2c abbc 44a7 c0bd bc23 be3c cb6b d13c
000002b0: 3211 e73b 9538 4ebd 7c24 043d 4578 51bd
000002c0: 0f4d 8d3b 5ae7 383e 9c49 e9bd 4b3c 4bbd
000002d0: f5fc 4f3d 5d01 263e 59ef cabe c417 b23c
000002e0: d6a0 113d f214 353e 981f 6a3d 5480 5b3d
000002f0: c282 95bd 9c81 25bc c7f4 343c 7bcd bc3d
00000300: c38f 313d 7372 e0bd ba88 873c 6422 32bd
00000310: 5fef ccbd 6030 7ebe 431e 253d ca51 943d
00000320: fab2 173e 02f9 da3d d60f 083e b312 bfbc
00000330: fef2 923a c4d1 01bd 1e87 2bbc 97ff b4bd
00000340: 1e73 bebb 73e5 5f3d cad6 9fbd c214 263d
00000350: 8b65 2abd 7436 b0bc fdc5 a6be 034b 5a3d
00000360: ca0c e6bd 10c7 c03c f617 5ebe c92b dcbb
00000370: 2a8c 883d 12b4 0bbd 80db 8a3c f209 8fbd
00000380: 287b 873e be44 92bd fe05 7cbb 9543 5ebe
00000390: 5f95 513d 29c8 92ba 0c69 85be 514e f2bc
000003a0: c7a2 7b3d 8666 fc3d 2184 d53e aa21 0f3e
000003b0: 69d2 88bd b6ab aabd a46e 3ebe 026a ad3d
000003c0: 65e4 3e3b 7284 b1bc 8d6a a83d 1851 99bc
000003d0: 3f82 2ebc 128d 0abe 7b70 b13c 3008 823c
000003e0: ee63 153e 9612 983c a646 833c 382f e63c
000003f0: c90c 42bd 9718 24bd 2167 b63d 0dd9 93bc
0.015671588 0.03209058 -0.074672274 0.005845664 0.056658477 0.08935968 0.10225363 0.08685778
-0.0033079423 -0.12405974 -0.035054065 0.15627462 0.028712979 0.12277194 0.022098241 -0.019386157
-0.13921583 0.07689668 0.14069529 -0.012508162 0.14305311 0.14480723 0.106696375 -0.084455416
0.016901545 -0.018940758 0.03633026 0.06388533 0.17881803 -0.13464867 0.05104218 -0.013909949
-0.050887477 0.09470848 -0.11651973 -0.054514058 -0.11289736 -0.015509829 -0.35684168 0.021747641
0.07285221 0.13922113 0.22205468 0.012397314 -0.004644791 0.043741018 -0.07972608 0.063121684
0.06455907 0.012890447 0.103622876 -0.0029395192 0.017243141 0.034294926 0.24847229 -0.08416068
0.15184277 0.2386861 0.10021044 -0.07067868 -0.032092094 -0.041151233 0.008721022 -0.013821399
0.010704854 -0.00086812174 0.018211184 -0.04663457 0.04785491 -0.13199319 0.17020446 0.10403121
0.02484851 -0.1748657 0.042119607 0.07609863 -0.034571175 -0.04369562 0.03749608 0.040330548
-0.030102324 0.12079996 0.088303626 -0.03149133 -0.0029567566 -0.037705664 0.14616558 -0.014155382
0.009747219 0.23366734 0.08320967 -0.13892476 -0.08064979 -0.039182797 -0.10689601 -0.0057575786
-0.0038811925 -0.10013564 0.06892716 -0.042413786 0.109628394 0.1942277 0.3460958 -0.08560217
-0.04560101 -0.023065077 -0.19837312 -0.04805213 -0.04690509 0.018687846 0.022044018 -0.022239055
0.006240608 0.07414469 -0.09161957 -0.0017022396 -0.019129599 0.25838807 -0.14938883 -0.052027117
0.014182829 -0.09547834 -0.44447812 -0.021639928 0.036381677 -0.012206818 0.13459417 0.06376583
-0.013595979 0.048197415 0.11027454 0.10259385 -0.030086484 -0.09190142 0.0061053955 0.1882716
-0.010991129 -0.13162471 0.18486011 -0.042209044 -0.076668486 -0.024543231 -0.008391586 0.04863283
0.036238458 -0.031166246 -0.02366071 0.05685271 -0.060641482 0.12978122 0.22585425 0.2105484
-0.0026768018 0.1565206 -0.16507624 -0.009786916 0.032442052 0.008150175 0.11687943 -0.013642939
-0.122132316 0.047090627 -0.01615162 0.0017899405 0.040555462 -0.016944546 -0.05361487 -0.08208947
-0.020895418 -0.094069034 0.023210399 0.025564095 0.0070516104 -0.05034693 0.032261357 -0.05114009
0.0043121646 0.18057004 -0.11390993 -0.049618047 0.050778348 0.16211458 -0.39635733 0.021739848
0.035553776 0.17683771 0.057159036 0.05358918 -0.07300331 -0.010101702 0.011044688 0.0921888
0.043349992 -0.109593295 0.016544688 -0.04348983 -0.10006594 -0.24823141 0.040312063 0.072421625
0.14814368 0.10692026 0.13287291 -0.023324346 0.0011211333 -0.03169419 -0.010469226 -0.088378124
-0.005812063 0.05466218 -0.0780464 0.04054714 -0.041600745 -0.02151034 -0.32572928 0.053294193
-0.11232908 0.02353242 -0.21688828 -0.006719087 0.06667359 -0.034107275 0.016950369 -0.06984319
0.26461148 -0.07142018 -0.003845572 -0.21705468 0.051167842 -0.0011198568 -0.26056707 -0.02957836
0.061434533 0.12324242 0.4170237 0.13977686 -0.066807576 -0.083335325 -0.18596894 0.08467485
0.0029127833 -0.0216696 0.08223448 -0.018715426 -0.01065117 -0.13530377 0.02166008 0.015873045
0.14588901 0.01856355 0.016024899 0.028098688 -0.047375474 -0.040062513 0.08906389 -0.018047834

bias f4 [48]
00000000: acdf 533e 3856 f63d 3ae1 f53e 15a5 a13e
00000010: cde0 00bd c701 433e 612e c43d 3d61 c03d
00000020: 26a8 d2bd 1f2c 963e 0953 4fbc 31c4 843e
00000030: ae88 7c3d 4366 88bd 1d31 39be e93f 143e
00000040: 702c b4bd 346b 64be 9b7e 58be 231a 91be
00000050: 242e a5bd 2a27 073e b477 91be 892d 5bbd
00000060: 5ed0 0e3e fe54 303e 94d2 1a3f 55a3 feba
00000070: 2dc4 db3e 0422 ae3e 4fb6 ee3e ec53 1e3d
00000080: eeae 3fbe 37bb ebbd 6e1b 133d a2df 07bc
00000090: 3400 943e c75f 013e 8ae6 1e3e 2acd 1b3d
000000a0: 0c46 913e be9b 743e 6d80 463d 4e4d 583e
000000b0: 2f44 86bd e563 903d 1681 913e 56c5 813d
0.20690793 0.12028164 0.48023397 0.3157126 -0.031464387 0.19043647 0.095791586 0.09393547
-0.10285978 0.29330537 -0.0126540745 0.25930932 0.061653785 -0.0666013 -0.18085141 0.14477505
-0.08797538 -0.2230652 -0.21142046 -0.28340253 -0.08065441 0.13198534 -0.2841164 -0.053510223
0.13946673 0.17219922 0.60477567 -0.0019427339 0.42923108 0.34010327 0.46623465 0.038654253
-0.18719074 -0.11510318 0.03591483 -0.008293064 0.28906405 0.12634192 0.15517631 0.038037457
0.28373754 0.23887536 0.04846232 0.2112324 -0.06555974 0.07050303 0.28418797 0.06336467

weight f4 [48, 24, 4, 4]
00000000: f7bf 07bd a19d 633d ef34 83bc 7f8b 93bd
00000010: 7a98 353d 0107 f0bc da37 a6bc 4c5d 41bd
00000020: 1df9 b0bc 42fd 47be 5e76 643c 616c 6f3d
00000030: 975f b43b 6c3d 8fbd 2f94 1e3d 99e2 813c
00000040: a9d2 8f3b 84ff 24bd daaf 0cbe 6ae1 82be
00000050: 35fb b4bd 7349 113e 9e23 37bd 6db4 0b3e
00000060: 5d2a 4bbb fa2b e53d 9c98 9ebc 3151 7bbc
00000070: ac15 b7bd c232 a93c f82a 7d3d 234c 70bd
00000080: 2c81 67bd 2cd2 223c 26ea 66bc 5d80 81bd
00000090: ff4a 003d 7b3b 8b3d a72e 4cbd 19fd a13d
000000a0: ff5f 4bbc 3bd8 273e b7b6 88be ed11 22bd
000000b0: 6403 16bd 5658 9fbc e21f d3bc dd65 273c
000000c0: 146d 9bbc 9c74 803c 2dd8 2abe 11f3 24bd
000000d0: e4fa 823d 1676 6f3e 5441 56bd ec3d 99bd
000000e0: ce1f 733d cfdd b5bb dffb 42be 0ea0 02bd
000000f0: fa36 953d aea0 64bd 0c47 0f3e 1a9e 643d
00000100: 740d 293d d491 553d c9c5 b33c 5936 183d
00000110: 6ebb 223d 432e c83d c969 52be 009f 3bbd
00000120: 5e93 173c 19d8 0ebe 4aef 36bd 4c11 913d
00000130: 2e1a 95bd e03f d23c f7ce 733d 7ddb 4c3c
00000140: 12d3 2a3d a37d 01bb d6ab a33c 338a 40bd
00000150: 11da 32be 36fa 8bbd d327 933e 1091 22bd
00000160: eddb 18bd 6408 923c eec3 debc 6849 e43c
00000170: c009 843e ccfb 253b 21c3 023f 0ede 2a3c
00000180: 9099 3c3d 4dd9 a63d 5fc3 c2bd 71c2 8abc
00000190: 6daf 51bd 0d28 423d 6678 84be bc90 893c
000001a0: 8632 82bd 0cd6 5a3e e32e b73d 454f 7a3d
000001b0: 42d2 63bd 5de2 d5bd cf40 7fbd 4df4 653d
000001c0: 2447 03be ba7b f73c 3ed6 393d abfb 3d3d
000001d0: e6bf b6bc 7b21 263e 5572 8cbc e1cd ccbc
000001e0: 8298 b0bd 3263 f13c 5c69 1c3e 29d8 d73b
000001f0: 4ef1 7b3c befd 9bbc e503 b1bd 366a 86ba
00000200: ad68 47bc c74d e2bc 7c82 dd3c 784a acbc
00000210: 9d8e 1cbb e1d1 ad3d 7c90 a63d cb93 55bd
00000220: 6926 d1bb a3b7 1e3d 5b9d bf3b a9c9 bc3d
00000230: 58eb 4a3d 9682 2dbe 0e03 f5bc 2237 96bc
00000240: d39a b43d ae48 383d a9ed a03c 80c1 703c
00000250: 094a 0a3c f34c 61bd eee1 26be e21f ac3c
00000260: 1e5a b63d 32f0 35bc 15c7 983e 34df 173d
00000270: c692 4f3d aeb5 bf3b 1bed cc3d d0a3 d33c
00000280: 0634 a7bc 51ac 11be 1bbb ffbc a24a 2fbd
00000290: 6abb 0abe 08d2 68bc ad99 3f3e fc40 88bd
000002a0: 9d77 b9bd 745d a23c 146a 903d 59e3 773c
000002b0: f7c0 603e 7510 5b3e 11b9 21bd e6b5 393e
000002c0: 7611 84bc c5ab 08bc b1c9 3fbc f036 0bbd
000002d0: d1bf 5dbd a190 003e 664c 5abe 35aa 33be
000002e0: 8e78 eebc c333 a53d 5c96 02be 2b7e 69bb
000002f0: 1dd0 6bbc fc7c e2bc 30f6 e33d b72d a03d
00000300: 97b1 bd3c 8a15 2f3e 6d70 e1bc 387d b13c
00000310: caf6 04bd 7ec0 173d 770f dbbd d307 2a3d
00000320: 695e da3d 7bfb 8d3d d80a 513c a96d f93c
00000330: c162 69bd cf72 e73c 130b 26bc d749 233d
00000340: b8b5 bcbc 3849 5d3d 9f59 67bc be4b f23d
00000350: 2917 4bbd 9488 483d fe1e 49be d596 0bbe
00000360: ef20 90bd ce5b fd3d ab51 223e af6b 0e3d
00000370: 4fd4 043e 251e 97bb 92df c03b dcb1 16be
00000380: 20ab 0bbe fd50 8e3c 241e bb3c 03b9 23bd
00000390: 2e1e 893d c8f0 ebbd 6427 e83e bd2d 803c
000003a0: 709a 9fbc 3c3d 30bd 5608 a43e 1246 59bd
000003b0: 3734 fabb 5b53 e5bc dfa3 5bbd 929d 18bd
000003c0: 9793 07bd 73be 163c c1de 083d 54f1 0dbc
000003d0: 3949 1ebd 14a7 ca3c d49f 693e a90b 53bd
000003e0: 21e1 ca3b f3b9 e93e 67fd 3a3e 4fd2 993c
000003f0: 5120 7cbd d2f0 00bd 451e eabc 5e53 953d
-0.033142056 0.05557025 -0.016016452 -0.07204341 0.044334866 -0.029300215 -0.020290304 -0.047208115
-0.021603161 -0.19530204 0.013944237 0.058452968 0.0055045593 -0.06994137 0.038715538 0.01585512
0.0043891263 -0.04028274 -0.13738957 -0.25562602 -0.088369764 0.14188175 -0.0447117 0.13643046
-0.0031000592 0.111900285 -0.01935988 -0.015339182 -0.089396805 0.020654086 0.061808556 -0.05866636
-0.056519672 0.009937804 -0.014093911 -0.063233115 0.03132152 0.067984544 -0.04984918 0.07909603
-0.012413024 0.16391079 -0.267019 -0.039567877 -0.036624327 -0.019451302 -0.025772039 0.010217157
-0.018972911 0.015680604 -0.16684027 -0.04027087 0.0639551 0.2338489 -0.052308396 -0.07482514
0.059356503 -0.0055501233 -0.19041394 -0.03189092 0.072858766 -0.0558173 0.13991946 0.05581484
0.041272596 0.052141026 0.021944897 0.037161205 0.039729528 0.09774449 -0.20548166 -0.04580593
0.009251444 -0.13949622 -0.044661798 0.07083377 -0.07280384 0.025665224 0.05952355 0.012503502
0.0417052 -0.0019758723 0.019979399 -0.047006797 -0.17465998 -0.06834833 0.2874132 -0.039689124
-0.037319113 0.017826267 -0.027193036 0.027867034 0.2578869 0.0025327085 0.51078993 0.0104289185
0.046044886 0.081469156 -0.0950992 -0.01693842 -0.05119269 0.047401477 -0.25873107 0.016792648
-0.06357293 0.21370715 0.0894449 0.061110754 -0.05562044 -0.10443566 -0.062317666 0.056141187
-0.12820107 0.030210365 0.045370333 0.046382587 -0.022308301 0.1622371 -0.017144362 -0.025000514
-0.086228386 0.029466245 0.15274566 0.0065870476 0.015377356 -0.019041892 -0.08643321 -0.0010255042
-0.012170953 -0.027624978 0.027039759 -0.021031603 -0.0023888715 0.08487297 0.08133027 -0.0521429
-0.0063827527 0.03874935 0.0058476157 0.09218151 0.049540848 -0.16944346 -0.029908683 -0.018336836
0.08818593 0.044991188 0.019644575 0.0146945715 0.008440503 -0.055005025 -0.16297123 0.021011297
0.08903907 -0.01110463 0.29839388 0.037078097 0.050677083 0.0058505153 0.10006162 0.025834948
-0.020410549 -0.1422589 -0.031217149 -0.042795785 -0.13548055 -0.014210232 0.18710966 -0.0665302
-0.090560175 0.019819953 0.07051483 0.0151298875 0.2194861 0.21392997 -0.039483134 0.18135795
-0.016121607 -0.008341734 -0.011705802 -0.03398794 -0.05413801 0.12555172 -0.21318206 -0.17545398
-0.02911022 0.080665134 -0.1275267 -0.003562818 -0.01439288 -0.027647488 0.11130941 0.078212194
0.02315597 0.1709806 -0.02751943 0.021666154 -0.03246192 0.03704881 -0.10696309 0.041511368
0.106625386 0.06932732 0.012758933 0.030447798 -0.056978945 0.028252987 -0.010134476 0.03986534
-0.023035869 0.054024905 -0.014120488 0.11830853 -0.049582634 0.048958376 -0.19640729 -0.13631757
-0.070375316 0.12371026 0.15851466 0.034770664 0.12971614 -0.004611748 0.0058860267 -0.14716285
-0.13639498 0.017372603 0.02284152 -0.039971363 0.066952094 -0.11520535 0.45342553 0.01564681
-0.019482821 -0.043027148 0.3203761 -0.05304534 -0.007635619 -0.027993849 -0.053623077 -0.037259646
-0.033099737 0.00920068 0.03341556 -0.008663494 -0.03864405 0.024737872 0.22814876 -0.051524792
0.0061913882 0.4564968 0.18260728 0.01877704 -0.061554257 -0.031479664 -0.028578887 0.07291292

bias f4 [24]
00000000: a2aa fcbe 2998 5c3e b954 91be 76a1 2bbf
00000010: 41ec 213e ed83 4ebf 89dc 403e de3d b03e
00000020: 8c3b 403f 34ce e8be 49f4 4e3f eaf9 b83e
00000030: a059 13bf 65fa ed3e 51b9 8f3e c11d 9cbd
00000040: 2f5c a43e 3547 50be 4ffe bd3e d299 c63e
00000050: 9baf 1dbe 3369 123f 4847 003f e85a 9e3e
-0.49348933 0.2154242 -0.2838495 -0.67043245 0.1581278 -0.8067005 0.18834127 0.344222
0.7509086 -0.4546982 0.808415 0.3612817 -0.5755863 0.46480098 0.28071073 -0.076228626
0.3210158 -0.20339663 0.37108085 0.3878923 -0.1539902 0.5719177 0.50108767 0.3092873

weight f4 [24, 12, 4, 4]
00000000: 3518 b63c bef7 4a3e e1ac e1bc 0edd f3bd
00000010: ca2e a8bc 0b1d a8bb b596 2e3e fa7d 103d
00000020: 1e83 7b3c be0a 19bd 0bef 5d3e 4d47 e03c
00000030: ea8e 903d 4e56 8a3d d180 bfbc 4a8b 01bd
00000040: 6bd9 723e 8d01 aabc b406 303e 40b1 c03d
00000050: 19f6 60bc 4329 96bd 5d79 aa3d fcdc fabd
00000060: 4719 c0bd 72fa c4bd 5a2a 2cbe ac61 4bbd
00000070: 0012 48bd dfeb 67bd 2f72 89bd de4d 41be
00000080: 0098 8c3d 48c5 613d 7605 f0bd ba46 de3d
00000090: 1861 51bc 2254 873e 8d41 11be 606f 3b3d
000000a0: 85e1 debc 48d9 ce3e e11f 50be 20dd 973d
000000b0: 8937 2abd 0fe4 8fbc 9259 1bbe 00ec f6bc
000000c0: dcf4 c03d 89c4 013d 35ac 673d 2920 98bc
000000d0: 660a 2b3d d88c babd d5f9 583e eabc 193c
000000e0: 8965 c73d aca9 eb3d 15e2 3d3e 2b26 bb3d
000000f0: bddc 89bc 25c8 3cbe 774a bfbd dbb4 46bc
00000100: fcec 103d a5af 2d3d 3f70 07bb ad9f 6dbd
00000110: 4aa7 75bd 40cb 31be ad20 2fbd bb8d 47be
00000120: 87fd b53d 0c67 fbbc ae65 4a3e ac62 363c
00000130: fa17 24bd 52c5 99bd 9206 a03d 0014 67bd
00000140: e05d 73bd 16af 3a3c 8791 203e b90f 52bb
00000150: 70ce 803d e4a4 24be 2a91 5b3d 6081 c13a
00000160: f609 353d 5823 853d bd87 053e 5e79 73bc
00000170: 872b 0dbd 80b4 bbbd 66b6 90bd 0205 323d
00000180: 7951 f5ba fae2 09be 31fe 1a3e 1ed9 213c
00000190: ca92 01bc 24ab 80bd 2f85 c9bd 969b 31bb
000001a0: 1560 ce3d 0e4c b03e 35b4 81bd 57b2 e63d
000001b0: a972 553d 4cd7 c73d 1f2d 38bd eb25 c53d
000001c0: 7dfc a83d 48bd 9cbd 7a6e 2bbe 8791 81bd
000001d0: 0e56 f93d 8eb8 8b3c e11a 083e 1758 19bd
000001e0: a573 7b3c 942f 84bd 302e e2bd 10e7 cdbc
000001f0: 93f3 2abd 5f08 a4bd f304 e0bc 477f 003d
00000200: 297f 4dbc 2ce1 e43d 7b46 543c ce4f 71bd
00000210: ecff 8bbb a195 8f3d 511c 7f3d f8d9 013e
00000220: 8c28 abbd ea20 0cbd 66d6 9e3c eb67 51bc
00000230: c7d6 8fba 15ac cabd 434a 273d 001c ccbc
00000240: 486b 373d 39f6 123c 3381 cc3d 752f 44bc
00000250: 981a 733d 6939 bb3d cc2c f93d a2fd b5bd
00000260: aba6 b83d 2348 eabd 7b2c 39bc 61dc a6bd
00000270: c104 cd3d ef78 3cbe 376d 3e3c 4189 bc3c
00000280: 292d 99bd 5faf d13d 669d 203e 5e29 c2bc
00000290: e9e2 06bc d075 fe3d cb9c 74bd 8fd7 4bbd
000002a0: c907 e63b 2607 823e bbe2 be3d 4d7f 32bc
000002b0: 1fc4 20bd d467 7d3e 60b8 27bd c04d 9c3e
000002c0: 5665 07be 4572 493e 07fc 81be 5bb7 9abd
000002d0: a386 62bd d4d0 87bd 9bc6 c9bd 51a1 debd
000002e0: c094 a53d 24f2 ad3d ecef 243e 6fc1 993c
000002f0: 65ea e73d 03be 8abc 7255 28bd 8a0f 223d
00000300: b37b 70bc 8a71 353d 2f4c 923d 5a07 8e3d
00000310: 30c6 e33d 1353 283e 4652 a13e 3908 8c3d
00000320: 60db ac3d c956 3c3e d307 393e 31bd 093e
00000330: 8ecd 8a3d 85d1 323d 73cf b73d 9074 9e3d
00000340: 4d85 85be fac2 41bd 59c7 dabb 3f1a 6e3d
00000350: a5e5 463d adc9 e13e fa98 033e 835a 5b3e
00000360: a620 033f 3530 3e3e 4887 b93e 7575 f03d
00000370: aa73 15bd bbd1 063e 9f27 ec3c a92c a8bc
00000380: 1926 143d 6ecd 123d fbc0 e23c 153c e03c
00000390: c8ee 8c3d 4cae 8b3d 95df 43bd 6cb2 c03d
000003a0: 69c5 a13d 4d32 3f3d 4651 3bbd c2c8 2ebb
000003b0: 92f0 debc 58bb 2ebd 39f6 ffbc c75a 18be
000003c0: 1625 763d 5ca9 fabd 50ae e3bc 8355 bd3d
000003d0: 2038 8cbc 487d 063e fe4d 943d 8ea2 093d
000003e0: e922 1b3e 5e56 e1bd e26d 1d3d e3e2 8b3c
000003f0: 4c7c 8bbd b582 fabc 6758 e4bb cce9 6b3e
0.02222834 0.19821069 -0.027548255 -0.11907397 -0.020530123 -0.0051304153 0.17049678 0.03527639
0.015351085 -0.03736376 0.21673219 0.027377749 0.07058509 0.067547426 -0.023376854 -0.031626977
0.23715751 -0.020752693 0.17190057 0.09408808 -0.013730549 -0.07332089 0.083239295 -0.12249181
-0.09379821 -0.09618081 -0.16813031 -0.049653694 -0.04884529 -0.05662143 -0.06711232 -0.1887736
0.06864929 0.055119783 -0.117197916 0.10853334 -0.012779497 0.26431376 -0.14185162 0.045760512
-0.027207145 0.40400147 -0.20324661 0.07415223 -0.04155687 -0.017564801 -0.15170887 -0.03014183
0.09421703 0.03168157 0.056560714 -0.018570023 0.041757964 -0.09108895 0.21189053 0.0093834195
0.09736163 0.11506972 0.18543275 0.09138139 -0.016828889 -0.18435724 -0.09340375 -0.01212808
0.035382256 0.042403836 -0.002066627 -0.058013607 -0.059973992 -0.1736269 -0.04275577 -0.1948766
0.08886247 -0.030688785 0.1976535 0.011131924 -0.04006193 -0.07508339 0.07813753 -0.056415558
-0.059415698 0.011394283 0.15680514 -0.0032052828 0.06289375 -0.16078526 0.053605236 0.0014763288
0.044198953 0.06500882 0.13040061 -0.014860479 -0.03446534 -0.09165287 -0.0706604 0.043461807
-0.0018716297 -0.13465491 0.15136029 0.009878425 -0.007908532 -0.062826425 -0.09839856 -0.0027100793
0.1007692 0.34433025 -0.063332 0.112644844 0.0521113 0.097578615 -0.044964906 0.09626373
0.08251283 -0.0765329 -0.16741362 -0.06326585 0.12174617 0.017055776 0.13291503 -0.037437525
0.015347396 -0.06454387 -0.11043966 -0.025134593 -0.041736197 -0.08009409 -0.02734611 0.03137138
-0.012542524 0.111757606 0.012956257 -0.058914 -0.0042724516 0.07010961 0.062282864 0.12680805
-0.08357343 -0.034211077 0.019389343 -0.012781124 -0.0010974043 -0.09896103 0.040842306 -0.024915695
0.044780046 0.008969837 0.0998558 -0.011974205 0.059351534 0.091418095 0.121667475 -0.08886267
0.090161644 -0.1143954 -0.011302109 -0.08147503 0.10010672 -0.18405508 0.011622719 0.023014667
-0.07479317 0.102385275 0.15685043 -0.023701366 -0.008232811 0.12424815 -0.059719842 -0.04976612
0.007019971 0.2539608 0.09320589 -0.010894609 -0.039249536 0.24746639 -0.040947318 0.3052807
-0.1322225 0.19672497 -0.25387594 -0.075545035 -0.05530418 -0.06631628 -0.09852334 -0.108706124
0.080850124 0.0849345 0.16107148 0.018768994 0.11324004 -0.016936308 -0.041097112 0.0395656
-0.01467793 0.044297732 0.07143437 0.06934996 0.11121786 0.1643794 0.31508082 0.06837506
0.0844028 0.18392481 0.18069391 0.13451077 0.06777488 0.043656845 0.08975115 0.07737076
-0.26078263 -0.047305085 -0.006676596 0.0581305 0.04855885 0.4409918 0.12851325 0.21421246
0.5122169 0.18573077 0.36236024 0.11741153 -0.03648726 0.13165943 0.028827487 -0.020529108
0.036169145 0.035840444 0.02767991 0.0273724 0.068814814 0.06820354 -0.047820646 0.09409031
0.07898981 0.04667883 -0.045731805 -0.0026669954 -0.027214322 -0.042659134 -0.031245338 -0.14878379
0.06009396 -0.12239334 -0.02779308 0.09244826 -0.017116606 0.13133729 0.07241438 0.03360229
0.15150036 -0.11002801 0.03843487 0.017075961 -0.06810817 -0.030579904 -0.006968546 0.23038405

bias f4 [12]
00000000: 75fd c3be d407 803f 62a6 9cbe b85f 7bbe
00000010: 798e c93e e049 c13e 4265 843d 39be d8be
00000020: 3c16 67be 9900 ae3e 7fa9 78bf 6330 673f
-0.3827931 1.0002389 -0.3059569 -0.24548233 0.3936651 0.37751675 0.06464626 -0.42332628
-0.22567075 0.3398483 -0.9713363 0.9030821

weight f4 [12, 3, 4, 4]
00000000: d629 e13d 2356 963d bc35 8bbd 3cb1 a9bb
00000010: 3b0f 513d 67d4 d1bd c389 92be 141c edbd
00000020: 26d1 1ebe ee4d 31bf 228c aebf dd6d a3be
00000030: 09cd c1bd 5e43 c6be cf9b 03bf 9b91 1ebe
00000040: 6e6f c13d 60f1 983d 416a dabc cb33 8e3b
00000050: ffe1 843d 2644 8bbd 2c3f 6bbe 09de 91bd
00000060: d451 0abe 92e5 27bf 591d adbf 1ba1 97be
00000070: 5f3d fabd 4c35 dcbe 08db 06bf cca5 0ebe
00000080: a440 b73d e335 a43d a938 f9bc c05b 9a3c
00000090: b71d 0c3d 7126 00be 1f1b 76be 33f2 69bd
000000a0: f67e 1dbe 362c 20bf 01fd 81bf 208e 89be
000000b0: 7875 d3bd 655f d0be 9e9a f3be 79f4 dfbd
000000c0: 9051 b1bd ae0a edbd b6ee c9bd f429 8cbd
000000d0: 16f2 dabd 6b41 c6bd f3c2 65bd 0371 98bd
000000e0: dd6b c5bd bdf2 a5bd 5533 bbbc 8fb0 12bd
000000f0: 3e6c 60bd 4c37 90bd 561b 64bd 9082 2fbd
00000100: 75e9 e53c 645b a13d d4bb 803d 293d 093d
00000110: 9879 f23d aebf 4b3e 572b 593e 857c 063e
00000120: 29bd eb3d a3aa 543e 2413 773e 6621 193e
00000130: 237a 823d 8ed2 f23d 7773 d23d 55c2 6f3d
00000140: ffeb 16be a675 8abe 4a4c 8ebe a4ee 07be
00000150: ef49 9fbe c0b4 c4be 8aa5 afbe a11e 90be
00000160: 68ed 92be ac8d adbe 3c20 93be 41c8 72be
00000170: 1409 06be 15c7 55be ba07 51be 7564 c3bd
00000180: 052f 473d ac86 4d3e 0c5a 033e 5164 d23b
00000190: dc43 513e 64ee fa3e fab2 a53e 97a4 ce3d
000001a0: 4bd8 713e 1635 cd3e b467 673e 5843 953d
000001b0: 6505 c53d 4773 083e fefd 4a3d b84b 8eba
000001c0: ab00 3d3d 584e 2f3e 6ad3 d33d abbb 393b
000001d0: 067b 333e 33b2 d43e b1c3 7a3e 5de0 933d
000001e0: 067f 693e 0150 a93e 4f5b 1b3e 601e 593d
000001f0: 6269 ec3d 8528 e43d 0fef 053d 3326 8c3b
00000200: 5db2 7f3d b7be 2f3e ac7d cb3d 1c6d 473c
00000210: 606a 2e3e 32d5 c13e 0644 593e 9bce 8e3d
00000220: 0fea 303e 9247 663e 5f06 583d 9373 9a3c
00000230: 14ef b03d 6c88 3a3d accd d7bc c307 8fbc
00000240: 45de d3bc 9681 30bd e5e1 f03c 1d0e 713d
00000250: 1589 963d 4ad6 10bd ab02 263e 90b1 953e
00000260: 438a 8d3d 64cf 06be cf5d 8d3c 2d3b 553e
00000270: c840 9bbb d52b aabd db5b f8bd 0dac 81bd
00000280: 85d1 dcbd 3755 25be 046c bcbd 1b0a d9bc
00000290: 689b b3bd 76dd 81be 8e4e 80bd 154e f43d
000002a0: 3c32 c7bd cee1 bdbe 9a79 68be 19aa f93c
000002b0: 57ac 95bd c4df 52be aa94 87be 1ce3 23be
000002c0: 60d6 50bd bef5 1abd 7760 4a3d 5fb6 563d
000002d0: 9e65 913d f7a1 cabc e52e 483e 3f3f a23e
000002e0: 7fa1 873d 6ae4 23be b896 773c 0df5 743e
000002f0: 7dab a1ba 8bce c5bd ba01 11be 18ac afbd
00000300: ca12 39bc d560 f9bd 6bea 4ebe adf9 18be
00000310: 156b 2fbe adf5 e0be eb4f c9be d084 8cbe
00000320: 202e fdbd 1da5 91be 9062 94be 40af 3cbe
00000330: 4c6c eb3b 6cab 16bc 1809 64bd 9b77 5fbd
00000340: a402 653b 7011 47bd f2f0 14be 58c3 07be
00000350: 2298 ecbd a4ef 99be 8572 84be 3e41 56be
00000360: 620c 81bd 75e3 13be 2bd0 24be 9374 e8bd
00000370: a784 053d 3a00 7b3d 041f b1bc 9a23 1bbd
00000380: be17 483c 3409 45bd 5529 0bbe c09b 15be
00000390: f772 d4bd e00d 77be 09d6 50be ee80 53be
000003a0: 863c 95bd 308b ccbd 51fe a4bd 0814 d3bd
000003b0: b814 093d df7c 963d cda9 4c3c 939c 1ebd
000003c0: e769 303d c50a 263e 2fb2 633e d0de 863d
000003d0: 023e b4bd 6d83 2bbd d9e9 fc3d 7ac9 89bc
000003e0: 19ae 88be 52bc c6be 3335 64be ed82 0fbe
000003f0: 58f2 09be 4d40 48be a781 aebd ca3f 4f3c
0.10994308 0.07340648 -0.067973584 -0.0051785987 0.051039916 -0.10245591 -0.2862073 -0.11577621
-0.15509471 -0.69259536 -1.3636515 -0.31919757 -0.094629355 -0.38723272 -0.5140962 -0.15485232
0.09445082 0.07467914 -0.026661994 0.0043396703 0.06488418 -0.06800108 -0.22973317 -0.07122428
-0.13507777 -0.6558467 -1.3524581 -0.296151 -0.12218737 -0.43009412 -0.52677965 -0.13930434
0.08947876 0.080180906 -0.030422525 0.018842578 0.034208026 -0.12514664 -0.24033783 -0.057115745
-0.15380463 -0.6256746 -1.0155336 -0.26866245 -0.1032514 -0.4069778 -0.475789 -0.10935301
-0.08658135 -0.115743026 -0.098599836 -0.068439394 -0.106907055 -0.09680446 -0.05609412 -0.0744343
-0.09639714 -0.08102939 -0.022851625 -0.03581291 -0.054790728 -0.07041797 -0.055690132 -0.042849123
0.028065423 0.078787595 0.06285825 0.033505592 0.118395984 0.19897339 0.21207939 0.13133438
0.11510689 0.20768218 0.24128395 0.14954147 0.06370952 0.11856566 0.102759294 0.05853494
-0.14738463 -0.27042884 -0.2779258 -0.13274628 -0.31111094 -0.3841915 -0.34305984 -0.28148368
-0.28696752 -0.3389715 -0.2873553 -0.23709203 -0.130894 -0.20876725 -0.20413104 -0.09540645
0.048628826 0.20070904 0.12827319 0.00642065 0.20436043 0.49010003 0.3236311 0.10089987
0.23617665 0.40079564 0.22598153 0.072882354 0.096201696 0.13325225 0.049558632 -0.0010856306
0.046143215 0.1711973 0.103430584 0.0028340619 0.17527398 0.41542205 0.24488713 0.07220528
0.22802362 0.3306885 0.1517155 0.053007483 0.11543538 0.11140541 0.032698687 0.0042770146
0.06242596 0.17162596 0.099360794 0.01217201 0.17032766 0.37857968 0.21217355 0.069730006
0.17276786 0.2248824 0.05274045 0.018853938 0.086393505 0.04554026 -0.02634319 -0.017459756
-0.025862822 -0.043092333 0.02940459 0.05885135 0.07350365 -0.035360612 0.16211955 0.29237032
0.06911137 -0.1316505 0.017256645 0.20823355 -0.004737947 -0.083091415 -0.12126895 -0.06331644
-0.1078215 -0.16145788 -0.0920029 -0.026494076 -0.08769876 -0.25364274 -0.06264983 0.119289555
-0.09726378 -0.37086338 -0.22702637 0.030476617 -0.07308262 -0.20593172 -0.2648061 -0.16004604
-0.050985694 -0.037832014 0.049408402 0.052420016 0.0709946 -0.024735434 0.19549139 0.31688878
0.066226 -0.16005102 0.015111618 0.23921604 -0.0012334433 -0.096585356 -0.14160815 -0.08577746
-0.011295984 -0.12176672 -0.20206611 -0.14938994 -0.17130692 -0.43937436 -0.39318785 -0.27445078
-0.12362313 -0.28446284 -0.28981447 -0.18426228 0.007184541 -0.009196144 -0.055672735 -0.054557424
0.00349442 -0.048600614 -0.14545038 -0.13258111 -0.115524545 -0.30065644 -0.2586862 -0.20923325
-0.0630119 -0.14442237 -0.16095035 -0.1135036 0.03259721 0.061279513 -0.021621235 -0.03787575
0.012212692 -0.04810448 -0.13589986 -0.14610195 -0.1037349 -0.24126387 -0.20394148 -0.20654652
-0.072869346 -0.099874854 -0.080563195 -0.10306555 0.033467025 0.07348036 0.012491656 -0.03872354
0.043069746 0.16215046 0.2223594 0.06585467 -0.088008896 -0.041873384 0.123492904 -0.016819704
-0.26695326 -0.38815552 -0.22285919 -0.14014788 -0.13471353 -0.19555779 -0.08520823 0.012649486

bias f4 [3]
00000000: cf77 74bf 901e af3e 84d3 94be
-0.95495313 0.34203005 -0.29067624
