DatasetCondensation-master/TEST_IPYNB/autoencoder_all_3.pt (torch, 197389 bytes, 12 tensors)

weight f4 [12, 3, 4, 4]
00000000: 30ea b9bd c9f9 01bc c36c 6bbd c99a cbba
00000010: 5c4d 9d3d e5da 543f f63f d8bd ad74 a6bd
00000020: a31a 3cbe 6f10 543c 1adb 4dbe d42b 9fbd
00000030: 89f7 473d 8923 9dbc 5cee 8c3d 8619 853d
00000040: c231 95be 6a97 0f3e 472a 69be 9c89 7d3d
00000050: f2bf a63e 76c1 723f 8701 b03e a511 163d
00000060: 755b a4bd c560 913e b4df 9bbc 6985 1a3e
00000070: 4f50 bcbd 4bfb 17bd 9bf7 18bc 0987 45be
00000080: 7b89 153e d35c 0ebe 0336 ea3d 1e87 2d3d
00000090: ccd7 26be 254d 0f3e 252a 2bbe 224e dbbd
000000a0: e02d fcbd 9cd1 0cbb 2e51 afbd 8359 183e
000000b0: 6593 393e 49eb c43c cb88 8c3d 54b5 0bbd
000000c0: 7872 043c 9788 b0bb 0774 83bd bbc4 5cbc
000000d0: 8279 a3bc b13d efbd 9538 25bd f601 dfbd
000000e0: a466 9a3c 82ef b0be 779f f7bc 0f89 e53d
000000f0: ce33 7c3d 16df 97bd 8b83 79be 7e17 aabc
00000100: c33f d4bc b912 ec3d c6f2 d33c 7f1a 843d
00000110: 737e 04bd f5f2 143e 72a7 f0bc 4623 4f3e
00000120: 681a 083e 1d04 e8bc b7f2 2b3e e615 493e
00000130: 850c 003e 064b d23d c821 f93d 8d64 173d
00000140: fc0e 9cbd 3175 4c3d 67f8 3bbc cd2f 17be
00000150: 25cc 013e dba2 f4bd 7694 4f3d d484 563d
00000160: df14 1d3d 91a0 cd3b ae25 153b b63a 0f3e
00000170: 204f 0ebe 45d0 99bd acdc 5abd c6c5 88b9
00000180: 68bf 0a3e bd73 7a3c cb5c 053e 8de2 81bd
00000190: 458a debc 25b3 fabd f726 05bb 122c 063e
000001a0: 3e2c 27bc 2fd5 1a3e c8da 27be 3d8f 95bd
000001b0: b208 89b9 2ca0 0abd b7b2 a13c 71af bf3d
000001c0: 0b91 e33c 9855 973d 593f dd3c dcbf 10bd
000001d0: 8c19 b4bc 585e 03be 509c 13be 3cd6 743d
000001e0: 1ac8 47be 3bbb a03e 2d51 153d 97ab a7bb
000001f0: d5a8 31bd 9d2c 863c 0d1d d1bd 22dd d63d
00000200: 0725 c7bd 2b6b cfbc 135b 85bb af0c 1abc
00000210: b827 a4bd a489 133e 6c6d 98bd 043e 5dbd
00000220: 306c 8d3e 1bf3 613f 782f 913e c4f8 8ebd
00000230: 1ba5 a9bc 9ee0 71bb 5a27 a1bd a6c6 e7bd
00000240: c586 603e ccfe febd 5996 4bbd 0512 583d
00000250: ff6f 7fbc 3a70 42be ab08 913e 674a 57be
00000260: 6c53 883d d199 92bd 7cee 07bd f8b1 283c
00000270: 9519 aa3d 67e8 053e d9fa 0bbe 137c 023e
00000280: d2b6 e0ba c74d 393c 4808 b7bc 1dd9 753c
00000290: d024 813d aef3 aebb 0dae 0a3f acb3 05be
000002a0: b552 12bc cdd5 31be c8b7 71bd 42ca 30bd
000002b0: 5e5f f4bd 1271 0c3e 1fd1 d7bd 35dc 9b3d
000002c0: 0eca eabd 54f2 cbbd 0a27 093e a331 49be
000002d0: 2234 09be 264a 2e3e ebe1 553f 566f 0d3e
000002e0: c0c1 423d 3fcb 8e3d 26e3 973e b512 89bd
000002f0: 887b 783c da42 ddbd bb5c 2bbd 24df b8bc
00000300: cb82 2bbb ab07 b03d e222 b0bd 6b76 cd3c
00000310: 14df 213d 270f ccbd 041a ed3c d403 e93d
00000320: d929 92be 78fd eabd 156e ae3d b0e3 0cbd
00000330: dd16 013c 080c 2c3d 10ab f43d 4099 9b3b
00000340: de30 3abc 52f6 aebc 0f3f ee3c af67 fbbc
00000350: bfe3 d43d 5667 6dbd aa91 c3bb 1f27 95bd
00000360: 18ab 2abe e118 2bbe b31b a43b f22d ed3d
00000370: 1d9c 2c3d eca2 82ba 9e56 a6bd 0396 9cbd
00000380: 52e9 583d 067d 21bd 71d8 a4bc d8d6 a0bc
00000390: 4f06 3f3d 411e 063e d1ae 823c eb45 cdbc
000003a0: 3f96 ccbd 5945 33bd bdaa 843d 36ea 5abc
000003b0: 4c13 d03d 022f 7fbd 2069 323a b8b8 f0bc
000003c0: 2a85 2ebd 6a8d b83d e8b1 16bd 9971 d83d
000003d0: dc80 683d 616d 24be bf23 c7bd 48d4 bd3c
000003e0: 8605 37be 02dc 503d 75db af3e 5722 9fbd
000003f0: c19d 863d 22a6 d2bd d40e 27bd 12dc 82bd
-0.09077871 -0.007933089 -0.05747677 -0.00155338 0.07680771 0.83146507 -0.105590746 -0.08127723
-0.18369536 0.012943371 -0.20103112 -0.077720314 0.048820052 -0.019181984 0.06881401 0.06499009
-0.29139525 0.14022604 -0.22770034 0.061898813 0.32568318 0.9482645 0.34376165 0.03663792
-0.080252565 0.28394142 -0.019027568 0.15089954 -0.09195005 -0.037104886 -0.0093363775 -0.19289793
0.14603226 -0.13902597 0.11436083 0.042365186 -0.16293257 0.13994272 -0.16715296 -0.10708262
-0.123134375 -0.0021487242 -0.08560406 0.14877896 0.18122633 0.024037974 0.06862029 -0.034108475
0.008083932 -0.0053873765 -0.06418615 -0.013474639 -0.0199554 -0.116816886 -0.040337164 -0.10889046
0.018847771 -0.3455773 -0.030227406 0.112077825 0.061572842 -0.07415597 -0.24366586 -0.020763155
-0.02590931 0.115270086 0.0258726 0.06450366 -0.032347154 0.14545806 -0.02937672 0.202283
0.13291323 -0.028322274 0.16791807 0.1963726 0.12504776 0.10268216 0.121646464 0.036961127
-0.076200455 0.04991645 -0.011472798 -0.14764328 0.12675531 -0.11945125 0.050678693 0.05237277
0.038349982 0.0062752445 0.0022758055 0.1398724 -0.13897371 -0.075104274 -0.053433105 -0.00026087294
0.13549578 0.015286383 0.13023679 -0.06342039 -0.027165541 -0.122412 -0.0020317414 0.13102749
-0.010203419 0.15120386 -0.16392052 -0.07302711 -0.00026137155 -0.033844158 0.019738538 0.09359635
0.027779123 0.073893726 0.027007746 -0.03533922 -0.021984838 -0.12828958 -0.14415097 0.059774622
-0.19509926 0.31392846 0.03645437 -0.0051168907 -0.0433739 0.016378695 -0.10210619 0.104913965
-0.09723859 -0.025319656 -0.004069695 -0.009402438 -0.08015388 0.14407974 -0.074427456 -0.05401422
0.27621603 0.88261575 0.28356528 -0.06981042 -0.020708611 -0.0036907564 -0.07868834 -0.11317186
0.2192641 -0.124509424 -0.04970393 0.05275156 -0.015590667 -0.18988124 0.28326926 -0.21024476
0.066565365 -0.071582444 -0.03318642 0.010296337 0.08305661 0.13076936 -0.1366991 0.12742643
-0.0017144328 0.0113100475 -0.022342816 0.015005377 0.063058496 -0.0053391075 0.5417183 -0.1305682
-0.008930852 -0.17366715 -0.059013158 -0.043161638 -0.11932252 0.13715008 -0.105379336 0.076103605
-0.1146432 -0.0995833 0.13393798 -0.19647841 -0.13398793 0.17020473 0.8354785 0.13812003
0.047548056 0.0697236 0.29665488 -0.06693021 0.015166171 -0.108037665 -0.04183648 -0.02256734
-0.0026170488 0.085952125 -0.08600403 0.02508088 0.039519385 -0.099638276 0.02894307 0.11377683
-0.28547552 -0.114741266 0.0851709 -0.034396827 0.007878986 0.04200366 0.1194669 0.0047484934
-0.01136419 -0.021357689 0.029082803 -0.030689089 0.103950016 -0.057959877 -0.0059682922 -0.072828524
-0.1666683 -0.1670871 0.005008185 0.11581029 0.04214107 -0.0009966767 -0.0812199 -0.076458
0.052956887 -0.039425872 -0.020122739 -0.019633695 0.046636876 0.13097478 0.0159525 -0.025057754
-0.09989595 -0.043767307 0.06477878 -0.013361504 0.101599306 -0.06230069 0.0006805826 -0.029384956
-0.042607464 0.090113476 -0.03679076 0.10568542 0.056763515 -0.1605735 -0.09723615 0.023172513
-0.17873201 0.050991066 0.3434712 -0.07770222 0.06573058 -0.102855936 -0.040785626 -0.06389631

bias f4 [12]
00000000: de2d e13e 305c 1f3f 816f df3e 7403 653e
00000010: 2fd3 2b3f 0de8 6a3e 4459 a33e dad6 ef3e
00000020: 548f 5d3f 4c00 bcbd a8d8 0cbf 8200 6a3e
0.43980306 0.6225004 0.43639758 0.22364599 0.67119116 0.22940083 0.31904042 0.46843606
0.86546826 -0.09179744 -0.5501809 0.22851756

weight f4 [24, 12, 4, 4]
00000000: b208 b5bc c4d5 a4bc 696d 6ebc c21a 3ebd
00000010: a1ff 803b 7642 153d c824 84bd 8955 60bd
00000020: 87c5 8bbc 1e83 623e 8b78 cb3c 5836 dabc
00000030: b968 fd3d dfeb e83d 3a9d ccbc 72fa 0f3d
00000040: 36b3 56bd 356e e93c 46f6 85bd 0616 743d
00000050: 8206 b33d 4013 8cbd 22a2 ad3d fe04 5f3d
00000060: 3768 943d 29b5 dbbd 4922 1bbd ebe1 0bbd
00000070: cf8c 63bd de20 2d3d 4a57 383d fe09 653d
00000080: 6208 863d a1de 803c 0e9b cb3d 28e5 10bc
00000090: d7d7 62bd 1317 073e 3600 db3d 03d4 fdba
000000a0: c802 dcbd fb96 2a3e 9853 ecbc a78e 95bd
000000b0: 78d3 23bb 676b f6bd ca08 703c ea4d 6fbd
000000c0: 5ff6 013d cea2 d7bb 8ffb 9a3d cfa7 8fbd
000000d0: 1dbe d83c afb2 223e c0fd a73d 3f12 493d
000000e0: 4489 08bc dc2f 053d e0f6 f83d f0a3 abbd
000000f0: 644d 29bd 00cf 9b3d c011 923d 135c 44bd
00000100: c391 15bd 8812 613c d80b 05be 5964 b6bd
00000110: 5a41 62bd a4e2 5cbd e980 753d 3256 f9bd
00000120: dbf7 a6bb ac88 4bbe cf05 36be 0d75 e6bd
00000130: 32e7 89ba 8a3b c8bb 2642 2c3a 0b5e b8bc
00000140: e84f 843d 3c90 b2bb 50f0 a2bc 3362 813c
00000150: f40e 8ebc bd8e c8bc bb70 f53d 1c72 82bb
00000160: b9af c93d 5f2a b63d 8682 e83d 84db 333b
00000170: b8c1 f3bd 0545 843d 082f 203b a976 2d3a
00000180: 305f 40bd d928 923c 08ec e43d 8a88 7d3c
00000190: 1c03 e3bb 15c0 97bd feba 9f3d 649f a13d
000001a0: e543 c83d f14e 403e acdd 1b3e 000d aabb
000001b0: 3601 b4bc f190 10bd 3233 9c3d 471a d0bc
000001c0: c7d3 a33c 731e e8bc 4a7c b13c 38a0 9abc
000001d0: 96ab 7b3c a3fc a1bd 591d b53b 2531 04be
000001e0: 1c3f 83bd fe8e 47ba 92d5 9ebb 747a d03d
000001f0: e174 333d bf4e a83d 5cf6 fbbd b3fb 833d
00000200: e85a 9b3d 7c6e a83b c395 17bc 199f 133d
00000210: c6b4 16bc 3469 8c3c ccf0 853d 4552 d03d
00000220: 446a 203d 1254 2fbd 8fb6 eebd 3057 79bb
00000230: 41b2 453d b005 b6bc 7100 0e3d a427 44bc
00000240: b1ed 9f3d b02a a2bc 737e 5cbd b242 6e3c
00000250: ffaf 48bd 9ec1 973d 41c0 eebd 1f1c a33d
00000260: 859b 263d 934d 99bd 87f4 81bd 6ceb 853d
00000270: c07e 823c 7091 1cbd 2a0d 1e3d 0b3b 6e3d
00000280: c3d0 10bd a034 b73b d4d6 25bd 303a d83d
00000290: 3e8c 123d 0a6f 15bd 5ba6 99bc 2389 19bd
000002a0: 9878 4dbd 055f 39be f173 443d e0c5 663d
000002b0: eb71 b63d e66c 393c 3686 8e3d e4f1 c83c
000002c0: c4c2 3dbc 1459 4c3d 1fa6 0d3d 63ce 843d
000002d0: 36ff b53d b94e 4b3e 9f40 813a f093 6b3c
000002e0: 96e0 5c3c 5c3f 5f3e baa5 da3d dd28 6cba
000002f0: c709 33bd 3088 e33d d796 aa3c 5ae3 173d
00000300: 4294 96bd f5e7 793d 1073 89bc 954c 27be
00000310: b968 c03d 5979 983e b082 683e 6542 b33c
00000320: 5781 fbbc 87df 843e 5817 9bbe e96d 69bd
00000330: 8858 383d 626a d6bd 9f91 62bd 0a19 a2bd
00000340: 2764 b1bd 968d d5bd 3208 c0bd dc1e 79bd
00000350: f99a d93d 14fa 5bbe 711d 0e3e 97fc 373e
00000360: d722 6a3d cf64 3f3e 0f28 913e 4933 213d
00000370: 5d86 57be 91b5 b13d 53de b43d ae35 cf3b
00000380: 9297 08be 5919 5abe 0cd2 c43d ca37 5e3d
00000390: 0888 c1bc ed5a a83c 458a 8abe a315 c33c
000003a0: 3573 82bd 24bc a43e 88fc 4c3e 4bda 303e
000003b0: 6257 4b3d 9131 3cbd 4796 5fbc 13e4 a03c
000003c0: 4227 553d f695 1abe dc9c acbd e8d8 3b3c
000003d0: a573 bcbc aa1d ddbd 1ad0 6b3e 6d57 f73c
000003e0: 05a9 d2bc 66ac 9cbe 653c a33e 457d 06bc
000003f0: 0f4f 0fbe 648f 1fbc 736a 683c ef72 be3d
-0.022098873 -0.020121463 -0.014552453 -0.046412237 0.0039367233 0.036440335 -0.06452328 -0.054769073
-0.017061962 0.2212033 0.024837753 -0.026637241 0.1237349 0.11373114 -0.024977315 0.035150953
-0.052417003 0.028494934 -0.065411136 0.059591316 0.08741476 -0.06839609 0.0847819 0.05444812
0.0724644 -0.10727913 -0.037874494 -0.034151 -0.055554207 0.042267673 0.04500512 0.055917732
0.06544568 0.015731158 0.09941684 -0.008843698 -0.055381622 0.13192396 0.106933996 -0.0019365553
-0.10742718 0.16659157 -0.028848454 -0.073025994 -0.0024997871 -0.12032204 0.014650533 -0.058423914
0.0317291 -0.006580687 0.07567512 -0.07014429 0.02645784 0.15888475 0.08202696 0.049089666
-0.008333508 0.032516345 0.12156463 -0.08380878 -0.04133357 0.076078415 0.07132292 -0.04793937
-0.036515962 0.013737328 -0.129928 -0.089058585 -0.055238105 -0.05392708 0.05993739 -0.121746436
-0.0050954646 -0.19876355 -0.17775653 -0.112527944 -0.0010521172 -0.0061106132 0.0006571136 -0.02250578
0.064605534 -0.005449323 -0.01988998 0.015793895 -0.017341115 -0.024482125 0.11984392 -0.003980888
0.098479696 0.088948004 0.1135302 0.0027444074 -0.11902183 0.06458477 0.0024442095 0.0006617108
-0.046965778 0.017841743 0.11177832 0.015474448 -0.006927861 -0.074096836 0.07799338 0.078917295
0.09778575 0.18780114 0.1522128 -0.005189538 -0.021973234 -0.035294477 0.07626952 -0.025403155
0.019998444 -0.028334832 0.021665711 -0.018875226 0.0153607335 -0.07909515 0.00552718 -0.12909372
-0.064085215 -0.0007612555 -0.004847237 0.10179606 0.043812636 0.082181446 -0.12302849 0.06444492
0.07585698 0.005140124 -0.009252015 0.0360404 -0.009198373 0.017140009 0.06540069 0.10171942
0.039163843 -0.042804785 -0.11655914 -0.0038046353 0.0482657 -0.022219509 0.03466839 -0.011972342
0.07809008 -0.019795746 -0.05383153 0.014542269 -0.048995968 0.074099764 -0.11657763 0.07964348
0.04067566 -0.07485499 -0.06345468 0.06539044 0.01592958 -0.038224638 0.038586773 0.058161777
-0.03535534 0.00559099 -0.04048808 0.105579734 0.035778277 -0.03648285 -0.018756082 -0.0374843
-0.050163835 -0.18102653 0.047962133 0.056341052 0.08908447 0.011317467 0.069591925 0.024529405
-0.01158208 0.04988964 0.034582254 0.06484678 0.08886568 0.19854249 0.0009861178 0.014378533
0.01348128 0.21801513 0.10676141 -0.00090087747 -0.043710496 0.1110996 0.02082388 0.037082054
-0.07352497 0.061012227 -0.016778499 -0.16337807 0.09394974 0.2978008 0.22706103 0.021882245
-0.030701322 0.25951788 -0.30291247 -0.056989584 0.045006305 -0.1046951 -0.055314656 -0.07914932
-0.08661681 -0.10427396 -0.09376563 -0.060820445 0.10625262 -0.21482116 0.13878419 0.17967449
0.057162132 0.18690799 0.28350875 0.03935555 -0.2104735 0.08677209 0.088314675 0.006323538
-0.1333907 -0.21298732 0.09610376 0.054252423 -0.023624435 0.02055117 -0.27058616 0.023814028
-0.0636963 0.3217479 0.20018208 0.17270772 0.04964388 -0.045945708 -0.013646669 0.019640004
0.052039392 -0.15096268 -0.08428356 0.011465289 -0.023004362 -0.107966736 0.23028603 0.030193055
-0.02571536 -0.3060028 0.31882015 -0.0082085775 -0.13995002 -0.009738777 0.014185536 0.092992656

bias f4 [24]
00000000: cc75 2cbe 5c86 c43e 80aa 9c3e 4bff ae3e
00000010: c607 c33e 2451 c23e 3ad4 873e 50d4 f23e
00000020: 80c8 a0be 3382 84be bbd8 093f f6a8 e03e
00000030: 90aa e63e d33a 6d3e c44a bc3e b6d4 c53e
00000040: aefc 023e b4a2 833e bb05 ea3e ec81 e83c
00000050: 02f6 debd edc6 083f 8bfe c03e ea98 ab3e
-0.16841811 0.38383758 0.3059883 0.34179148 0.38091868 0.3795253 0.26529104 0.47427607
-0.3140297 -0.25880584 0.5384633 0.43878907 0.45052004 0.23166971 0.36775792 0.38638848
0.12791702 0.2571007 0.45707497 0.028382264 -0.10886766 0.53428537 0.376942 0.33515102

weight f4 [48, 24, 4, 4]
00000000: 88d0 4ebd 9ab7 af3d 6991 03bd 9531 8b3c
00000010: b4b4 133c e40b 983c 39ec d03d 5a17 18bd
00000020: 9f65 9d3d 6c2d 683d b1c8 813e c267 cf3d
00000030: 60a3 ca3d 61c3 f6bb 1976 e03c 0885 4e3b
00000040: 9bda e23d 56bd f9bd a53c 043d ac39 6abd
00000050: d703 7d3c 50d8 4ebe 7ec7 ca3d b164 953d
00000060: 6c97 c23c a032 223d 32ec d03d fbee 123e
00000070: 764a 9b3d 0f3e 4dbd f242 b63b 4917 243c
00000080: 99e2 073d 6e47 48be f67b c53d 7ac9 cf3d
00000090: 55ed 51be a4f3 ffbd 9dd6 b8be 0344 ccbd
000000a0: dffa cfbd 84d3 c23d 2b52 12be da9c 4ebe
000000b0: c46b c2bc 5d29 15bd 2887 ee3c b72d a03e
000000c0: b54c 18be 8896 663c 7ab0 21bd 4796 1dbd
000000d0: 9d74 013d ad5b 423e 7523 febd 14ac 1dbd
000000e0: 2ee0 c23d f8bb 393c 868d 3e3c d260 e33d
000000f0: 55f7 343d 1f1c 95bd 87de 34bd 2523 09be
00000100: 902d bebc 0206 583c 2680 063e ab55 ecbc
00000110: 848c ba3d 1773 b93c a58e 4c3d b679 223b
00000120: 26d0 b7bc c0ee 60be 9ba6 afbe f263 ac3d
00000130: 545d a23d 1e14 083e 2463 03be 29f0 23bd
00000140: 833a 16bd 599f f23b ee62 ddbd 9ac2 44bc
00000150: 9c6a 533c 8b8f 323e 3d0d 48be 8728 203d
00000160: 3c6e 82bd e047 1d3c 6f52 02bd b1cc d03d
00000170: b8ec 18bc 3426 bcbc 2722 3d3d 2256 86bd
00000180: 5835 0b3e e049 67bd 7f8d f53d 14e3 623b
00000190: bd59 323e e534 003d 47d5 993d ba85 fcbc
000001a0: 222b b3bd 231e 6fbd a35b 0a3e 8e0c 843c
000001b0: 0491 10bd 4469 9cbd b0fa bdbc 4036 0cbc
000001c0: adf0 983d 797f 2b3e 8312 54bd fab0 8b3b
000001d0: 1bc3 e5bc 90fa 44be e8ec ebbd f6ef 95bb
000001e0: 93f8 903d df32 ab3d 73c6 2c3e fba2 9a3d
000001f0: 6dc6 d1bd 13b8 03bd c9b0 8cbd 2921 d03d
00000200: d82b f73b 22b9 19bd fadf 4fbc cc6b 4fbb
00000210: 064e 103d 6d86 5f3e 9b01 ac3d 13cd c9bd
00000220: c80e 2bbc 7c21 d93d 837f a03d 95e0 bcbb
00000230: 6e69 c4bc 0b60 42bd 766b 533d 3803 57bd
00000240: c9c5 c7bc d448 a53c fe7f dc3c 212b 8cbc
00000250: d182 89bc 3348 403e 3af3 503e 9bc0 413c
00000260: f991 f13c e251 b93d a807 403e 01ff a8bb
00000270: e1de 4cbd 8ae0 583c fccd 02bc 2c0f fc3b
00000280: 4dc2 06bd c687 8abc c3e2 b43c 73bd 8cbc
00000290: 743e 3f3c 67ae fd3d eaad 11be 6c1b fb3d
000002a0: 6018 84bd 0fe6 a4bd 86db 9fbe 44ea cfbd
000002b0: e5e8 a4bb cfc9 923c e4bf 4abd 3eca 333c
000002c0: f157 143d d6ed 123d 2216 383d 2aef f1bb
000002d0: 74ca 5dbd 44de e9bd c3d3 013d 45c1 b73b
000002e0: 50f5 8dbb a3e8 7b3b 0546 b4bd a0c2 1dbd
000002f0: b00c 063d 5c78 9d3d 3b88 a23c 9621 4fbd
00000300: 0eb6 483d b5d3 55bd 2620 bc3d 2059 813c
00000310: 2ef0 913b bb27 cd3d c8b8 b8bd f79f 533d
00000320: 3679 3abd 4540 103e c749 47be 41e4 313c
00000330: 2088 b9bc 5fc6 45bc 534d ba3d 3a8d 123d
00000340: 99fa 94bc fc3b 083d 97c4 bb3c 5c8b e53b
00000350: 12ef 353d 0ef0 f1bd 3399 37bd 2aa6 eb3a
00000360: 5a28 943d 7ee0 91bb 19f1 ec3c 779c 9cbc
00000370: 8536 81bd 6046 6c3d a88a 253e 8b4a 933d
00000380: 5b2d 043e 58dc bebd b133 4fbd c13c 813c
00000390: f786 933d b877 71bc 1dcf 11be 3171 7b3e
000003a0: 972c 3abc 66e8 a6bc 3f01 7b3e 7f24 3b3e
000003b0: 30ef 823c 307b e23d 7e0d 40be bb95 adbc
000003c0: 371d 183d 74df 22bd 63a5 523d 1a57 4bbc
000003d0: a83e a63d 14a5 5a3d ce94 013e 39d0 a83d
000003e0: 506e b639 656f 8d3c e7b4 05be 9801 0c3d
000003f0: 6c72 29bd 2134 6e3d 11ee f83d 8dea 51bd
-0.05049184 0.08579941 -0.032121096 0.016991416 0.009015251 0.018560357 0.10201306 -0.037131645
0.07685398 0.056683943 0.25348428 0.10127212 0.098944426 -0.007530615 0.027400063 0.0031512398
0.11076852 -0.12194316 0.032284398 -0.057183906 0.01544281 -0.20199704 0.09901331 0.07294596
0.023753844 0.03959906 0.10201301 0.14348976 0.07582562 -0.05010801 0.0055621797 0.010015317
0.033175085 -0.19558498 0.09642784 0.101458505 -0.20500691 -0.12497643 -0.36101237 -0.0997391
-0.10155272 0.09513 -0.14289157 -0.20177022 -0.023733027 -0.0364164 0.029117182 0.31284878
-0.14873011 0.014073975 -0.03947494 -0.038473394 0.03160535 0.18980284 -0.12409107 -0.038494185
0.09515415 0.011336319 0.0116304215 0.111024514 0.044181187 -0.07280754 -0.04415753 -0.13392313
-0.023215085 0.013185026 0.13134822 -0.028849443 0.091088325 0.022637887 0.049940724 0.0024791784
-0.02243812 -0.21966076 -0.34306797 0.084175006 0.07927957 0.13288924 -0.12830788 -0.040023956
-0.036676895 0.0074042496 -0.10809885 -0.012009287 0.012903836 0.1743757 -0.195363 0.03910115
-0.06368682 0.009599656 -0.031816896 0.10195292 -0.009333782 -0.022967435 0.04617515 -0.06559397
0.13594568 -0.056466937 0.11989879 0.0034620212 0.17417045 0.031300444 0.075113826 -0.030825485
-0.08748461 -0.05837835 0.13511519 0.016119268 -0.035294548 -0.07637265 -0.023190826 -0.008557856
0.0746778 0.16747846 -0.051775467 0.0042630406 -0.028047135 -0.19236207 -0.11519796 -0.0045757247
0.07078662 0.08359312 0.16872577 0.07550617 -0.10242925 -0.03215797 -0.068696566 0.10162575
0.0075430684 -0.037530072 -0.0126876775 -0.0031649945 0.03523066 0.21828623 0.08398744 -0.09853568
-0.010440536 0.1060209 0.07836821 -0.005764077 -0.023976054 -0.047454875 0.051616155 -0.052493304
-0.024386303 0.020176329 0.0269165 -0.01711041 -0.016786011 0.18777542 0.20405284 0.011825706
0.02948855 0.09048821 0.1875292 -0.005157352 -0.05001724 0.013237128 -0.007983681 0.0076922383
-0.032900143 -0.016910445 0.022080785 -0.01718018 0.011672605 0.1238678 -0.14226499 0.1226109
-0.06449962 -0.08051693 -0.3122217 -0.101521045 -0.005032646 0.017918495 -0.049499407 0.010973511
0.03621668 0.03587135 0.044942982 -0.007383247 -0.054148152 -0.11419347 0.031696092 0.0056077563
-0.004332222 0.0038438223 -0.08802418 -0.038515687 0.032726943 0.07688972 0.01984035 -0.05056914
0.049001746 -0.052203853 0.09185819 0.015789568 0.0044536805 0.100173436 -0.09019619 0.051666226
-0.045525752 0.14087017 -0.19461738 0.010857643 -0.022647917 -0.012071221 0.0909678 0.035779215
-0.0181859 0.03326033 0.02292089 0.0070051383 0.04441745 -0.11813365 -0.044823837 0.0017978598
0.07234259 -0.0044518104 0.028923558 -0.019117577 -0.06309227 0.057684302 0.16166174 0.07191952
0.12907927 -0.09319371 -0.050586406 0.01577604 0.07203477 -0.014738016 -0.14239164 0.24554898
-0.01136317 -0.020374488 0.24512194 0.18275641 0.015983194 0.110586524 -0.18755147 -0.021189561
0.037137236 -0.039763883 0.051427256 -0.012410903 0.081174195 0.053380087 0.1265442 0.0824284
0.00034795934 0.017265031 -0.1305729 0.034181207 -0.041368887 0.058155183 0.121547826 -0.051249076

bias f4 [48]
00000000: 1314 99be 24af 36bd ecd9 7fbe 1086 ab3d
00000010: 59cc 4c3e d892 213e 3963 a93e 5426 6fbe
00000020: f574 0d3d 0997 bfbc fb7b 1a3d 23a4 7bbe
00000030: 3469 943e 2c3b 76be a70c 3c3e 4d86 433c
00000040: 5254 f6be 400f 5b3e 6c9d 673e dc9f 6c3e
00000050: 9e4c 053e a83a bc3e 3e9e 6f3e cb12 8e3e
00000060: d5e9 363e 6836 f93d a8ff 1ebe 0efe acbd
00000070: c139 a53d 2d34 b53e d12d d73d 8068 813e
00000080: 6191 963e 8ecd 163e 42dd 943e 5e0f a13d
00000090: a0fb 9e3d d4af 823e e263 1a3e b518 c13e
000000a0: b207 2c3e 6db0 a8be 610d 753e 40cd 5a3e
000000b0: 2314 a33e bc98 183e cf81 773e 99ff 4f3e
-0.29898128 -0.04460062 -0.24985474 0.0837518 0.19999827 0.15778673 0.33083513 -0.23354465
0.034535367 -0.023387449 0.037715893 -0.24574332 0.28986514 -0.2404601 0.18364201 0.011933875
-0.48111206 0.21392536 0.22618645 0.23107857 0.13017508 0.367635 0.23400208 0.27748713
0.17862637 0.1216858 -0.15527213 -0.084468946 0.08067656 0.3539137 0.10506786 0.2527504
0.2940779 0.1472685 0.29075056 0.07864259 0.077628374 0.2552477 0.15077165 0.37714162
0.1679981 -0.32947102 0.23930885 0.21367359 0.318513 0.14902014 0.24170612 0.20312347

weight f4 [48, 24, 4, 4]
00000000: 8be8 623d a1da 09bd a86e 573d a3ef 3cbb
00000010: 7474 c43e 896d 92bd d8ce a9be cbf3 25bd
00000020: edf1 47bd 4323 2bbd b448 f7bd 1dd6 0fbc
00000030: e66d 87be a850 5bbd 742c 98be d77a 613c
00000040: f735 c13d 32aa 6e3d 21e1 95bc 63d4 69bd
00000050: f7a4 843d 9fa2 a7be 93d0 eebc 7c31 f13b
00000060: e53d 113e 9f08 583d 6767 06bd 6da5 27bd
00000070: 6b2d 9d3b 1e89 3fbc cf8f b53d 9f5e bc3c
00000080: 9f1e 1ebe 9552 693e 014e abbc c520 69bd
00000090: 7bd1 0bbe eeb2 3dbd c49a 01be bbf5 4bbc
000000a0: e771 f13d 6a92 10be 6f1c 3f3e 6f25 6d3d
000000b0: 3c16 bfbc 9eb1 8f3c ffb6 a33d 4606 1f3f
000000c0: c589 003d f00b 183e 4289 93bd 5343 ce3d
000000d0: 62ae bcbd 4990 b13d 6c56 133d 3f32 d4bc
000000e0: 936b c7bc 40bb 013e e186 373e c263 c43b
000000f0: 72a3 3bbd beba 45bd 2bf7 9e3c 7b33 4e3c
00000100: 30a7 893d d949 303e 26e5 aabd b02c 8b3d
00000110: 30f2 d33c 2398 c4bd 2037 18be f89f e9bd
00000120: fada 413e cb5d 523c eb8a 343d 5dc5 ec3d
00000130: 320f ae3d 8495 d5bd 3eb5 103e a70c cf3b
00000140: 3097 afbd 2a10 75bb de41 4ebc dc41 713d
00000150: a246 c03d bda8 c23d 8204 0cbe e8ed d63b
00000160: 183c 4ebd 3682 01be 69dd f4bd e702 d6bc
00000170: 0c4f 2cbc 6a4b b13c eb94 e63d 244b c83d
00000180: 024b 48bd c3a4 fb3c f347 6c3d af4b 05bd
00000190: 51c8 62bc ca6a b4bd b839 25be 3f1d 543d
000001a0: c698 903d 60f0 523d f6dc bdbd 0946 803d
000001b0: c7f5 9a3c 0d61 3e3d de1f f9bc 211c 0abe
000001c0: 2551 703d 1577 153d 0dec 273b b542 45ba
000001d0: 9165 a83d 5565 42be 2987 ba3d b5a2 6e3d
000001e0: 09c8 d73b d2fe 10be fcf2 353e 3b85 e7bc
000001f0: 23d3 1f3d 0ad5 00bc 82a0 8d3d 87e0 0fbd
00000200: 4ac5 333d 0a6e 25bd 566a 933d 2f53 a0bd
00000210: f1ef 313d 64ea 29bc ed46 063d 7907 1bbe
00000220: c65f 3bbc 1227 b63d 9a79 91be 58ca ed3c
00000230: cf54 943e 2469 613e 02ad 0abe 66c6 b9be
00000240: cc78 a13c 45f9 e43c cbb1 a1bc e855 dfbb
00000250: 0bb7 643d a491 a83d 857e e3bc b801 f1bc
00000260: 8473 97bc 7a0a 6cbd a41f 38bd 395e e9bc
00000270: 0f38 b4bd 31f8 38bb 426e c4bc 002d d13c
00000280: fdc0 2f3e 3772 01be f644 5ebd a61b 41bc
00000290: e8cf 25bd 5bb5 723e 6f1e 1e3c 5305 9c3c
000002a0: aff2 e1bb 1c4e 87bc 136b 39be 6c4c 1abd
000002b0: 63fa 1e3d 4bfa 353d 246a a2bd 3cdc 94bd
000002c0: 11aa 213d 58a6 413d 8ec8 75bd d597 bebd
000002d0: 5dcc 233e 5eb2 403d 3d6e c8bd c2e2 1d3e
000002e0: e3db 9a3e df35 8c3d 7fbc cc3c 4cc8 923d
000002f0: 0fc3 a13d ba36 bc3d 3c74 2abe 8e2f d0bb
00000300: 091e f33d 715b 03bd e2a8 553e 5916 8a3e
00000310: 6261 c2bc cd59 8d3e a4fc f5bd 2429 693d
00000320: 1e51 8a3e 0a4e 583d 4b08 3abe 48ed 0e3e
00000330: 7836 fcbc 9df0 b9bb 22ce ba3d 0ef6 55bd
00000340: 1601 553b c3df 3b3d d7c4 b6bd ee8e 63bc
00000350: 403b 2e3d ee2b 59be 5e06 c7bc ab5e e0bd
00000360: d7dc c53d 26c9 6d3d 137b af3d 039b 973d
00000370: 7d57 413d cc48 9f3c e7b6 813d d375 403d
00000380: 5f8b a73d 1ea9 82bc 919e 00bd 32e1 643c
00000390: b9f7 9dbc e718 62bd e0c8 243e c615 4a3d
000003a0: 2a80 37bc 2abc 45bb 71d2 583d 7734 7f3d
000003b0: 6780 113d 8379 b53d 1547 ba3d 4f2b 6bbd
000003c0: 0767 153d 8873 51bd f939 8c3c e59d 38bd
000003d0: 39c7 bcbd 69c7 55be 1eea 5bbe b5c4 56bd
000003e0: f253 2dbc 771e 8b3b 4a8c 6e3c d901 523c
000003f0: 31c0 0dbd a038 61bd 7171 66bc 5941 c7bb
0.05539755 -0.033655766 0.052595764 -0.0028829358 0.38370097 -0.071497984 -0.33165622 -0.040515702
-0.048814703 -0.041781675 -0.12074414 -0.008779076 -0.26451033 -0.053543717 -0.29721415 0.013762197
0.09434121 0.05826778 -0.018295826 -0.057087313 0.06476777 -0.32741258 -0.02915219 0.0073606353
0.14183767 0.052742597 -0.032813456 -0.040929247 0.004796674 -0.011690406 0.0886532 0.022994338
-0.15441369 0.22785409 -0.020911219 -0.056916017 -0.13654129 -0.04631322 -0.12656695 -0.012448723
0.11789303 -0.14118353 0.1866319 0.057897028 -0.023326032 0.01754075 0.07993888 0.6211895
0.031381387 0.14848304 -0.07203914 0.10071435 -0.092129484 0.08670098 0.03597109 -0.025902865
-0.024343288 0.12669086 0.17922546 0.0059933374 -0.04581017 -0.048273794 0.019404968 0.012585516
0.067213416 0.1721567 -0.08344488 0.06795633 0.02587232 -0.0959933 -0.14864779 -0.11407465
0.18931189 0.012839745 0.044077795 0.115610816 0.08498992 -0.104289085 0.14131638 0.006318647
-0.085737586 -0.0037393668 -0.012588946 0.0589007 0.09388472 0.095048405 -0.13673595 0.0065591224
-0.05035028 -0.12647328 -0.11956293 -0.02612443 -0.010516893 0.021642406 0.112588726 0.09779957
-0.048899658 0.030718213 0.057685804 -0.03254288 -0.013841704 -0.08809431 -0.16135299 0.051785704
0.07060389 0.05149877 -0.092706606 0.06263358 0.018916024 0.046479274 -0.030410703 -0.13487293
0.058671135 0.03649052 0.0025622875 -0.0007524894 0.08222497 -0.18983968 0.09107811 0.05826064
0.0065851253 -0.14159706 0.17768472 -0.028261771 0.039019715 -0.0078632925 0.0691538 -0.035126235
0.04388932 -0.040388145 0.07198016 -0.07828366 0.043441717 -0.0103708245 0.032782484 -0.1513957
-0.011436408 0.08894171 -0.28413087 0.02902715 0.28970954 0.22012764 -0.1354256 -0.36284178
0.01971092 0.027950892 -0.019738099 -0.0068156607 0.055838626 0.08230904 -0.02777029 -0.029419765
-0.0184877 -0.05762718 -0.04495205 -0.028487312 -0.08799755 -0.0028224105 -0.023978356 0.025534153
0.17163463 -0.12641226 -0.054264985 -0.011786377 -0.040481478 0.23701994 0.009650811 0.019045508
-0.006895385 -0.016516738 -0.18107252 -0.037670538 0.038813006 0.04442815 -0.07930401 -0.07268569
0.03946883 0.04727778 -0.060005717 -0.093063034 0.15995927 0.047045104 -0.09786651 0.15418532
0.30245885 0.068462126 0.024992226 0.0716711 0.078985326 0.09190126 -0.16645902 -0.006353325
0.11870963 -0.032069627 0.20865205 0.26970175 -0.023728076 0.27607575 -0.12011078 0.056924
0.27015013 0.0528088 -0.18167226 0.13957703 -0.030787691 -0.0056744353 0.09121348 -0.05223661
0.0032501868 0.045867693 -0.08924263 -0.013889058 0.042536974 -0.21208164 -0.024295028 -0.109555565
0.096612625 0.05805316 0.085683964 0.07402613 0.047202576 0.019443892 0.06333714 0.046987366
0.0818088 -0.015949782 -0.03140122 0.013969706 -0.019283162 -0.05519953 0.16092253 0.04933717
-0.01119999 -0.003017197 0.052935068 0.062305894 0.035522845 0.08861067 0.09095589 -0.05741435
0.036475208 -0.05113557 0.017117487 -0.045072455 -0.09217686 -0.2087685 -0.21476027 -0.05243369
-0.010579096 0.004245575 0.014559815 0.012817823 -0.034607116 -0.054985642 -0.0140651325 -0.006080788

bias f4 [24]
00000000: 00cd 75bd 5ab5 213f 474e 97be 214a 7bbe
00000010: b27b b2bd 7427 2fbd 8ae0 fd3e 34c1 5e3e
00000020: 4744 983e 96fa c63e 84fc 81be e853 c1be
00000030: 89e4 803e f0bb c83e 398d 19bd 2538 c73c
00000040: 616b 663e 76cc 953e 92a7 b5be 39ec 5b3e
00000050: 1362 c03e b989 55be 7b58 dd3d 7860 843e
-0.060009956 0.63167346 -0.29551908 -0.24539997 -0.08714999 -0.042762235 0.49585372 0.21753389
0.2973959 0.38863057 -0.25387967 -0.37759328 0.25174358 0.39205885 -0.037488196 0.024318764
0.225019 0.29257554 -0.35479409 0.2147683 0.37574825 -0.20853318 0.10807892 0.2585485

weight f4 [24, 12, 4, 4]
00000000: 9b9b ef3c baba 4cbe d615 9fbd 8baf 533d
00000010: 29cd 5bbb f80f 7fbc 595d 523e 41e4 81bd
00000020: b9a8 a1bd 7e62 60bc dd28 323e c48d b0bd
00000030: 00be 2bbd ab22 063e 2e70 4abd d9f8 833e
00000040: 07e5 a63d 3cb5 753d 47b9 85bb e5b1 d7bc
00000050: 1600 4dbe 984c da3b a1f9 8c3d 781e c53b
00000060: 919a 3dbe b91c 53bd 5c7e 04be 627a 2a3e
00000070: 0907 ec3c f475 033e 9e9e 473e 6654 62be
00000080: 36b5 2f3e eee5 c1bc 813a 9f3d 43c2 d6bc
00000090: 6c08 13bd d574 553d f26c 243e ce74 27bd
000000a0: 4b8a bc3d 0a37 f3bd 704c 7e3e 9a4e c43d
000000b0: ee86 1cbd 0165 b43d cce1 993d 68f5 babd
000000c0: 21ec 96bd c775 3ebd fc2d da3d c238 bd3b
000000d0: 5480 f4bd 8847 913c 6b3f 3ebd 2b26 5bbe
000000e0: ed06 a2bc 6c9e 0ebd 5437 6abe e090 4ebd
000000f0: 4334 4b3d 98ac 99bd d867 f4bd f887 a6bd
00000100: ad38 ff3d 1849 8c3e 1eb3 0f3d f439 2d3e
00000110: c0b7 bdbc 30a3 e7bc 61ac 163e 6c1b cabd
00000120: a52e 7f3d 9b1a c3bd b920 8b3e 188e 4d3e
00000130: b9f7 783d 034b e63c 4af1 733d 32ab 28be
00000140: b5e1 eb3d 5af8 f03d be11 73bd 9995 af3d
00000150: f1ab 3ebc ac72 433e 5b08 fabb ef94 4fbd
00000160: 1745 e03d e70b d2bb 5671 58bd 708d 0c3d
00000170: 7a07 cd3c 31c8 b43b d7ec 343a 8ae5 64be
00000180: caa9 1e3c 7177 df3d 68bd 153e f20d 7c3d
00000190: 5330 72bc 32c1 f73b 8dde 6a3d d3ee c83d
000001a0: a472 be3d 9d00 b5bd b80f 553e 43e0 953d
000001b0: 7c71 9dbc cf21 2f3d 2988 12bc 5136 47bd
000001c0: f230 c9bc 506b 683c ed2d 0abe db2c febb
000001d0: 8aed 4ebd 5903 bdbc 7c38 cb3c 95ff 783c
000001e0: b617 cb3d 8eb8 24bd 4535 3d3a 2d90 afbd
000001f0: 4151 b5bc 29b2 843c b079 dcbc f70d c2bb
00000200: 1f9e 85bd 8f52 a5ba e54a 233d 6d7d 123e
00000210: 3126 7bbc c87e 25bd 4ca8 af3c e759 20bd
00000220: e523 e73d 2a60 59be 15af b73d ad4d fabd
00000230: f152 0dbe 41aa 853e 849d 04be 3aa3 82be
00000240: d3e1 0f3e 490d 8d3d 6ff9 2b3e 30b8 a23d
00000250: 6c2d 0ebc cab8 92be de40 6dbe 461f ddbe
00000260: 2a98 f3bd c6c9 83bc 8fcf 11bd a4ef 8ebd
00000270: c5ce 37bc 27f6 6f3d 5fb6 0ebe a108 8b3d
00000280: 74ef e23a f84b 723d ff9a fe3c a2af a53d
00000290: 54df a1bb 9a64 f73a 7058 463e 238c 38bd
000002a0: 0ef1 a0bc 2ddb 873e c73d 853d 9446 19be
000002b0: 47cc 15bd 1f66 d4bc 779c f13d 3726 5a3c
000002c0: c34a 253e ead7 a1bc 60ac 68be 8df6 32bd
000002d0: 97ef 583d 9ebc e13c 0670 033e d31d 1ebd
000002e0: 16a5 f8bc 6207 9fbd f7d5 c2bc cd4a 2e3d
000002f0: d7ff e8bd 60ea 183d 0194 2fbe 063a 1b3d
00000300: 1971 8d3d 3e8c 433e 2175 7d3e 839f f9bd
00000310: 4866 41be 0f98 913e 32db 14be c044 35bd
00000320: 6849 0cbe f07f de3d 54a9 103e c123 5abd
00000330: fd11 9e3d 304b fb3c ca25 80bd d3d0 12bd
00000340: 201f e9bd 858d 1b3e 147f 61bc 039b eb3c
00000350: 7b47 22be ddda a83c cbd2 a23c ead7 ed3c
00000360: 4be9 57bd 6c88 773e 71db f13d 4311 11bd
00000370: 67ae fbbc 3217 883a 1554 d2bd 507a 4ebd
00000380: e7b4 efbc bc34 213c dd0d 19bd 4a03 adbd
00000390: bcab 82bd e5e1 a7bd f285 3ebc 922f 51be
000003a0: 8614 8abc b3f8 cebd a05b 3e3e b894 3c3d
000003b0: b0d3 0abc e2bf be3c e880 c8bd db4a 453c
000003c0: 84f3 f3bc e21b 04ba afcf 93bb d118 98ba
000003d0: f560 9abd ff7e 073e f237 67be 0824 9c3d
000003e0: d4fd 03be 89d7 4f3c 2fe9 dc3d 3a50 893d
000003f0: 588c fa3c db76 38be d674 593d 18fa 98bd
0.029249003 -0.19993106 -0.07767837 0.051681083 -0.0033539033 -0.015567772 0.20543422 -0.06342364
-0.078935094 -0.013695357 0.173984 -0.0862079 -0.041929245 0.13099162 -0.04942339 0.25775793
0.08149152 0.05998729 -0.0040809247 -0.026329944 -0.20019564 0.0066619627 0.068835504 0.006015595
-0.18515994 -0.051541064 -0.12938827 0.16648248 0.028811948 0.12837964 0.19494101 -0.22102508
0.1715897 -0.02366921 0.077748306 -0.026215678 -0.035896704 0.052113373 0.16057184 -0.040882878
0.09206065 -0.11875732 0.24833846 0.095853046 -0.038214616 0.088083275 0.075137705 -0.09128839
-0.07369257 -0.04649904 0.10653302 0.0057745883 -0.11938539 0.017734304 -0.0464472 -0.21401279
-0.019778693 -0.03481905 -0.22872669 -0.050431132 0.049610388 -0.07503623 -0.11933869 -0.08131403
0.12461982 0.27399516 0.03508293 0.16916639 -0.023158908 -0.028276056 0.14714195 -0.098685116
0.062300343 -0.09526559 0.27173403 0.20073736 0.06078312 0.02811194 0.059556283 -0.16471556
0.115176596 0.11766119 -0.059343092 0.08573455 -0.011637674 0.19086713 -0.0076303906 -0.050679144
0.10950678 -0.0064101103 -0.05284246 0.034314573 0.02502798 0.0055170287 0.0006901747 -0.22353187
0.009684036 0.109114535 0.14623034 0.061536737 -0.014782029 0.0075608725 0.057341147 0.09811177
0.0929921 -0.088380076 0.20806777 0.07318165 -0.019219153 0.04275685 -0.008943596 -0.048635785
-0.024559472 0.014185742 -0.13494082 -0.007756812 -0.050519504 -0.023072885 0.024807207 0.015197654
0.09916632 -0.040215068 0.00072177156 -0.08572421 -0.022133471 0.016198235 -0.026913494 -0.005922075
-0.065243 -0.0012613105 0.039866347 0.14305659 -0.01532893 -0.04040411 0.021442555 -0.039148238
0.11286143 -0.2122809 0.08968941 -0.12221847 -0.13801171 0.26106456 -0.12950712 -0.25515157
0.14050989 0.068872996 0.1679437 0.07945287 -0.008677822 -0.28656608 -0.23169276 -0.43187922
-0.11894257 -0.016087424 -0.035598334 -0.069793016 -0.011218731 0.05858436 -0.13936757 0.06788755
0.0017313794 0.05915448 0.031079767 0.0809014 -0.004939953 0.0018874586 0.19369674 -0.04505552
-0.019646194 0.26534405 0.06505924 -0.1496833 -0.036571767 -0.025927601 0.117974214 0.013314775
0.161418 -0.019756276 -0.22722006 -0.04369216 0.052962866 0.02755576 0.12835702 -0.03860266
-0.030352157 -0.0776508 -0.023783667 0.042551804 -0.113769226 0.037332892 -0.17146303 0.037897132
0.06906337 0.19096467 0.24751712 -0.121886276 -0.18886673 0.28436324 -0.14536741 -0.04425502
-0.13699877 0.10864246 0.14127094 -0.053256754 0.07718275 0.0306755 -0.06257208 -0.03584368
-0.1138289 0.15190704 -0.013763208 0.028760439 -0.1584758 0.020612175 0.019875905 0.02903362
-0.05271272 0.24173135 0.11809433 -0.035416853 -0.03072281 0.0010382889 -0.102699436 -0.050409615
-0.029261066 0.009839233 -0.037366737 -0.08447893 -0.06380412 -0.08197383 -0.011628615 -0.20428303
-0.01685549 -0.10106029 0.1858964 0.046040267 -0.008473322 0.023284856 -0.09790212 0.012041773
-0.029779203 -0.0005039555 -0.004510842 -0.0011604076 -0.07538024 0.13232039 -0.22579935 0.0762406
-0.12889796 0.012685665 0.10786664 0.06704755 0.0305845 -0.1801409 0.05308994 -0.074695766

bias f4 [12]
00000000: 5740 f83e d585 d73e 1184 363e 3ee6 29bf
00000010: 3668 08bf d6d6 2d3f 70db d53e 5af6 1d3f
00000020: 701b 03bf f51a 0c3f 070b debe 6fe0 5bbf
0.48486587 0.42094293 0.17823817 -0.66366947 -0.53284013 0.6790594 0.4176898 0.6170403
-0.5121374 0.54728633 -0.43367788 -0.85889333

weight f4 [12, 3, 4, 4]
00000000: cd08 86bd 40e0 c9bd ec3f 403e 1e36 583e
00000010: 8414 53be 1e12 bebe 6d17 7e3c 1a6f 433e
00000020: 1584 2bbe 1cd1 c1be 9569 0ebe 10b0 edbb
00000030: df5c 753d 9043 a83b 18be a03d 1080 4e3d
00000040: 8ab3 70bd 06ac 06be 0854 0b3e 022c 453e
00000050: 2348 4dbe 1d1e d2be b130 7ebd 8955 103e
00000060: 4df8 27be 832a d2be fd11 4dbe 58c2 4ebd
00000070: a9b8 ad3d 95ad a9bb f18e 6d3d 2998 273d
00000080: 2004 b5bd ef4e cebd b5d3 5e3e e65a 653e
00000090: f999 4cbe d15e aebe 4390 733d ae52 5d3e
000000a0: 4ecd 1cbe b885 acbe b635 edbd 415e 7dbb
000000b0: f74b 9a3d a622 e13c 7ae5 ce3d fe75 353d
000000c0: 19ad 983d 70af d4bd 710e b2bd e359 d2bd
000000d0: 2aab a6bd 0e45 a2be 2898 59be e0f6 83be
000000e0: f9dd b23d 5630 bb3d 155f 593e 2a22 1d3e
000000f0: 3f4e 803d 42dd 803d 86a2 0c3e 089e d33d
00000100: dd23 8b3d d445 f5bd f65a b1bd f71a f6bd
00000110: ee98 0abe fae9 d0be 172d 89be f279 9ebe
00000120: edbb fa3c 48d1 14bb f89b 103e 8803 d23d
00000130: 2b0e fa3c 3c61 603c 3ff3 c53d 5fbc a63d
00000140: 74ae ab3d 79cc 0dbe 937c e8bd b76f fdbd
00000150: 8119 0ebe cc7c e8be bb13 aebe 8697 b2be
00000160: 51c2 fc3c b575 96bc 48aa d53d dc9a c53d
00000170: f209 823d fa80 123d 1021 db3d 757e e13d
00000180: d8a4 07bc 15a1 16be 7fe0 60be 2089 02be
00000190: 8d33 c5bc e7c5 bdbe c0e3 d5be 8abd 28be
000001a0: d07c 76bd c8b5 c5be 56a7 e4be f1f9 a3bd
000001b0: 0657 6ebc 834f 35be 558e 66be f810 643c
000001c0: c45f fd3c d4fd 283d cf98 f3bc 5d23 b1bd
000001d0: b678 273e cb3a 093d 2768 d93c a4f1 4b3d
000001e0: e8b8 da3d 936a eabb 415a c0bb 9f5a 183e
000001f0: 3a1a c2bc 9dce 20bd 0fb6 e7bc 12aa 9b3d
00000200: 1e03 843d b2b4 adbb 60b5 f4bd b4d5 c4bd
00000210: c4b3 b63d 35c2 09be 9d67 18be c3d8 4bbd
00000220: 0482 dc3c bb1c 54be 4512 50be b8be 883d
00000230: 53f7 0cbc 46f6 cfbd 838d edbd d1b5 903d
00000240: 8320 61be 70fd 98be 2c32 75be 6fd6 ccbb
00000250: b559 e0be 4518 23bf 5aff d4be e52a bfbc
00000260: 2860 7dbe 64dd bdbe 8ab1 03be b658 c33d
00000270: d42a f73c 6fb2 873d 975b 2e3e 6e11 263e
00000280: bb0c 6abe 6d91 fdbe 7144 8dbe 948d 9abb
00000290: 93d4 16bf d38f 20c1 6da6 2dbf 3cc4 91bc
000002a0: 86bb 97be 7f80 03bf 915b 17be 315d b63d
000002b0: baef 1c3d 1f8c bc3d 6eff 333e 02b3 f63d
000002c0: 0a8e 63be 0307 cbbe 3b09 9ebe cf08 083c
000002d0: 9fd4 13bf 68c4 96c0 5a49 22bf 69c5 e6bc
000002e0: 9e02 a6be 90d4 00bf 5af4 4bbe 4b4b ab3d
000002f0: 1ee2 023d e4a2 713d ecbf 203e e3ad 093e
00000300: 4cf1 1e3e 84f9 743d 8e0d 0cbe ec83 77bd
00000310: d20f 093e 5a46 16be 2104 a5be 8377 b3bd
00000320: f2d0 b4bd c238 c7be edf6 c5be 88de 93bd
00000330: 29da cebd 6c75 1cbe 78cb 95bd fb20 2b3d
00000340: 357a f43d 0f57 2d3c 8fb8 40be 1aae 51bd
00000350: da36 b93d 52e2 a4be bf26 4fbf 1c94 15be
00000360: c695 05be 26a4 5abf 1ab1 6cc0 0be4 e7bd
00000370: 3831 1cbe 0509 3fbe 4423 04be 6e84 cbbb
00000380: f35d 173e 26ef 5f3d c4dc d3bd b275 09bd
00000390: e681 1d3e faef 53bd 0643 37be b2d9 71bd
000003a0: 5e03 83bd b15c 51be b4c8 0bbe 8664 1abd
000003b0: 06aa dcbd a74d b9bd 6028 52bd 15ad 90bc
000003c0: 60dd fb3d fdbb cf3d eb56 29bb 1e43 31bd
000003d0: 7c7b 883e 283d 7d3e 2662 e03d feeb ec3c
000003e0: e71c 12bd c21d 7abd 30c1 e3bd e907 05be
000003f0: f3a4 9dbd cad1 86bd a0a8 4bbc 58ae abbd
-0.06544647 -0.098572254 0.18774384 0.21114394 -0.20613295 -0.37123197 0.015508515 0.1908535
-0.16749604 -0.3785485 -0.13907464 -0.0072536543 0.059903022 0.005135007 0.078487575 0.0504151
-0.05876497 -0.13151559 0.13606274 0.19255069 -0.20047049 -0.410386 -0.062058154 0.14095129
-0.16403313 -0.4104806 -0.20026393 -0.05047831 0.08482487 -0.0051781633 0.057997648 0.040916596
-0.088386774 -0.10073649 0.21760447 0.22397956 -0.19980611 -0.34056714 0.05946375 0.21613571
-0.15312693 -0.3369577 -0.1158251 -0.0038660916 0.075340204 0.027482342 0.10102363 0.04430198
0.07454891 -0.103850245 -0.08694161 -0.10271051 -0.08138116 -0.3169331 -0.21249449 -0.25774288
0.08733744 0.09140079 0.21227677 0.15345064 0.06264924 0.062922016 0.13733873 0.103328764
0.0679395 -0.11976209 -0.086599275 -0.12016862 -0.135349 -0.4080351 -0.26792213 -0.30952412
0.030607188 -0.002270775 0.14121997 0.1025458 0.030524334 0.0136950575 0.09665536 0.08141398
0.08382884 -0.13847531 -0.11351886 -0.123748235 -0.13876916 -0.45407712 -0.33999428 -0.34881228
0.030854376 -0.018366674 0.10432869 0.09648678 0.06349553 0.035767533 0.106996655 0.11010448
-0.008279048 -0.14709885 -0.21960638 -0.12747622 -0.024072433 -0.3706505 -0.41775322 -0.16478553
-0.060177624 -0.3861525 -0.44658917 -0.08006657 -0.014547115 -0.17706113 -0.22515233 0.013920061
0.030929454 0.041257694 -0.02973595 -0.08649323 0.16354641 0.033503335 0.026538922 0.049790993
0.10679799 -0.007153818 -0.005870134 0.14878319 -0.023694146 -0.03925954 -0.028285054 0.07600798
0.06445907 -0.0053010816 -0.11948657 -0.09611073 0.08921006 -0.1345299 -0.14883275 -0.049767267
0.026917465 -0.20714085 -0.2031947 0.06677002 -0.008603889 -0.10154395 -0.11599257 0.07065929
-0.21985058 -0.29880857 -0.2394492 -0.0062511484 -0.4381844 -0.6370891 -0.41601068 -0.023335883
-0.24743712 -0.3708297 -0.12860695 0.09538405 0.03017179 0.066258304 0.17027126 0.16217586
-0.22856419 -0.49525014 -0.2759128 -0.0047165845 -0.5891811 -10.035113 -0.6783207 -0.017793767
-0.29635257 -0.51367944 -0.14781024 0.089044936 0.03831456 0.092064135 0.17577907 0.12045862
-0.22222152 -0.39653787 -0.30866417 0.008302881 -0.5774631 -4.7114754 -0.63393176 -0.028170304
-0.32423872 -0.50324345 -0.19917431 0.0836397 0.031953923 0.058993235 0.15698212 0.13445239
0.15521735 0.05980827 -0.13677046 -0.060428545 0.13384941 -0.14675274 -0.32229713 -0.087630294
-0.08828916 -0.3891049 -0.38664952 -0.07220179 -0.101002045 -0.15279168 -0.07314199 0.0417795
0.11937372 0.010579838 -0.18820404 -0.051191427 0.09043665 -0.3220392 -0.80918497 -0.1460728
-0.13045415 -0.8540672 -3.6983094 -0.113227926 -0.1525315 -0.18655784 -0.12904078 -0.006210855
0.14781933 0.05467143 -0.10344842 -0.03355951 0.15381584 -0.05174253 -0.17896661 -0.0590455
-0.063971266 -0.20445515 -0.13650781 -0.037693523 -0.10774617 -0.09048014 -0.051308036 -0.017660657
0.12298083 0.10143278 -0.002583916 -0.0432769 0.2665671 0.2473036 0.1095622 0.028921124
-0.035672095 -0.061063536 -0.11120832 -0.12991299 -0.07697477 -0.06582983 -0.01243034 -0.08382863

bias f4 [3]
00000000: 7a3f 103d ffc0 44bf 8051 61bc
0.035216786 -0.7685699 -0.013752341
