DatasetCondensation-master/TEST_IPYNB/autoencoder_all.pt (torch, 197361 bytes, 12 tensors)

weight f4 [12, 3, 4, 4]
0	0x3cacab10	0.021077663
1	0x3d8d2867	0.06892472
2	0x3c790aef	0.015200361
3	0x3d06fb97	0.03295478
4	0xbd175ce8	-0.036953837
5	0xbc68c638	-0.014207415
6	0x3baa16c2	0.005190701
7	0xbd8db8b4	-0.06919995
8	0xbc862f5a	-0.01638
9	0x3c1be8fe	0.009515999
10	0x3e3bb795	0.1833175
11	0x3da5611b	0.08075162
12	0xbd0e0ded	-0.03468125
13	0xbd53946c	-0.051655218
14	0x3e3303fb	0.17481987
15	0xbd87c963	-0.06630208
16	0x3e0f0078	0.13965023
17	0x3d7a7ca2	0.061154015
18	0xbc5d550f	-0.013509049
19	0x3cd3f5d6	0.02587406
20	0xbc8aa7d6	-0.016925734
21	0xbe6f9765	-0.23397596
22	0xbe90778e	-0.28216213
23	0xbe06a7ee	-0.13149998
24	0xbcdf691b	-0.027271798
25	0xbd123e5c	-0.035704
26	0xbd69eee6	-0.057112597
27	0x3cc221af	0.023697702
28	0xbd7cafc4	-0.06169106
29	0xbdf3bc05	-0.11901096
30	0x3cb7a2de	0.022416528
31	0xbdc07c04	-0.09398654
32	0xbce2304b	-0.027610919
33	0x3b0adffb	0.0021190632
34	0xbd8b6add	-0.06807492
35	0x3e0e85d1	0.13918234
36	0x3c92d69a	0.017924596
37	0xbd97acef	-0.07406031
38	0xbe17acbc	-0.14811987
39	0x3d616103	0.05502416
40	0x3d0fb8ee	0.035088472
41	0x3cd83137	0.026390655
42	0x3dfd9005	0.12380985
43	0x3e590cbc	0.21196264
44	0x3d084391	0.03326756
45	0xbd999bb9	-0.07500405
46	0x3dc35632	0.09537925
47	0x3c3741dd	0.011185137
48	0xbe64145f	-0.22273396
49	0x3de28734	0.11060944
50	0xbd0ce38e	-0.0343967
51	0xbdde9dab	-0.108699165
52	0x3d3aa9de	0.045572154
53	0x3e83770c	0.25676763
54	0x3df1f146	0.118135974
55	0x3d5eeef3	0.0544271
56	0xbdb14127	-0.08655005
57	0xbd63b6af	-0.055594143
58	0x3d341d3a	0.043973185
59	0x3e27449e	0.16334769
60	0xbca1bda6	-0.019743752
61	0x3dbe4f2a	0.09292443
62	0x3d3a2453	0.045444798
63	0x3b8807fe	0.0041513434
64	0xbd8aef65	-0.06783942
65	0x3e71e40e	0.23622152
66	0xbe727f0a	-0.23681274
67	0x3db9c830	0.09071386
68	0x3e82af04	0.2552415
69	0xbd16a7d5	-0.03678115
70	0xbe9ce395	-0.3064238
71	0x3e83d49e	0.25748152
72	0x3e4101f6	0.18848404
73	0xbe2bea10	-0.16788507
74	0xbed1dc6f	-0.4098849
75	0xbdd55a6c	-0.10417637
76	0x3dea7d0c	0.11449632
77	0x3e3d2d62	0.18474343
78	0xbda6d3ee	-0.08145891
79	0x3e5dba13	0.21653013
80	0x3da040ec	0.07824883
81	0x3d8b5e83	0.06805136
82	0x3d29d9d3	0.0414675
83	0x3e122d98	0.14275205
84	0x3e11bdf1	0.14232613
85	0xbe114907	-0.14188014
86	0xbe90b256	-0.2826106
87	0x3e09c559	0.13454188
88	0xbe3628cd	-0.17789002
89	0xbe966c34	-0.29379427
90	0xbeb12c5b	-0.34604153
91	0xbe3e87a6	-0.18606433
92	0x3d352083	0.04422046
93	0x3e08c16a	0.13355032
94	0xbe3b3425	-0.1828161
95	0xbc91f9f7	-0.017819388
96	0x3d7e9444	0.062153116
97	0xbc2dc6e0	-0.0106064975
98	0x3cbbecc6	0.02294005
99	0xbd82d84a	-0.0638891
100	0xbb3f6a2b	-0.0029207568
101	0xbd5b15b0	-0.05348748
102	0xbd229b52	-0.039698906
103	0x3daeee62	0.08541562
104	0xbe276180	-0.16345787
105	0x3f130cc2	0.5744134
106	0xbd9f6b05	-0.07784084
107	0xbdc1af7e	-0.094573006
108	0xbdef1558	-0.11673993
109	0x3cdf0646	0.027224671
110	0xbdf49351	-0.11942161
111	0x3cbe67a0	0.023242772
112	0xbd0c0ce0	-0.034191966
113	0xbc868492	-0.016420636
114	0x3a84241e	0.0010081565
115	0xbba52801	-0.005040169
116	0xbc52a33c	-0.012856301
117	0x3de12147	0.10992675
118	0x3df2eed8	0.11861962
119	0xbdb7ce3a	-0.089748815
120	0x3e8efa51	0.2792535
121	0x3f7ec049	0.99512154
122	0x3ecbd440	0.3981037
123	0xbde985dd	-0.114024855
124	0xbd27d533	-0.040974807
125	0x3dc82cb7	0.09774154
126	0x3cc375a4	0.023859806
127	0xbcb96f25	-0.022636006
128	0x3e0b5452	0.13606384
129	0xbd9b1345	-0.07572035
130	0x3d955397	0.07291334
131	0x3c98b432	0.018640611
132	0xbe04b5ea	-0.1296002
133	0xbdca1ffd	-0.098693825
134	0xbe238866	-0.1597
135	0x3dca631f	0.09882187
136	0xbd114db2	-0.035474487
137	0x3eda5604	0.4264375
138	0xbded5641	-0.11588717
139	0xbce55f1b	-0.027999451
140	0x3ce53b94	0.02798251
141	0xbdd947fa	-0.106094316
142	0xbd090e16	-0.0334607
143	0x3dd128ea	0.10212882
144	0x3e2c05d3	0.16799097
145	0x3d45fc8a	0.048336543
146	0x3cb48262	0.022034828
147	0x3e539496	0.2066215
148	0xbe2f6731	-0.17129208
149	0xbdb8970b	-0.09013184
150	0xbd9f9548	-0.07792145
151	0xbe8c0f77	-0.2735555
152	0x3cbed05b	0.023292711
153	0xbd9b41ce	-0.075809106
154	0xbe719c9c	-0.23594898
155	0xbebc266c	-0.36748064
156	0xbde258f0	-0.1105212
157	0xbd20566c	-0.03914492
158	0x3b8abb67	0.004233766
159	0x3e6e730c	0.23286074
160	0xbde33aea	-0.11095221
161	0xbd2e615f	-0.04257333
162	0xbd1f56fd	-0.038901318
163	0xbc9cd13b	-0.019142738
164	0x3e261471	0.16218735
165	0xbda72541	-0.081614025
166	0xbd6cbc15	-0.057796557
167	0x3ead317a	0.3382681
168	0xbda0116a	-0.078158215
169	0xbde39eaf	-0.11114251
170	0xbd76bce1	-0.060238723
171	0x3d0b5e12	0.03402526
172	0xbe5302bf	-0.20606516
173	0x3cc4bcc3	0.02401579
174	0xbdfd2551	-0.12360633
175	0x3d007347	0.031359937
176	0xbe56a428	-0.20961058
177	0x3dabdc35	0.083916105
178	0x3d42ebc9	0.047588143
179	0xbe02cca2	-0.12773374
180	0x3e04a08f	0.12951873
181	0x3e8be470	0.2732272
182	0x3e4d83e9	0.20069851
183	0x3e50721f	0.20356034
184	0xbccf9f29	-0.025344448
185	0xbd1c5599	-0.03816757
186	0xbeb8bb0a	-0.360802
187	0xbc6654e3	-0.0140583245
188	0x3e77f0f8	0.24213016
189	0x3ea2dee1	0.31810668
190	0xbd48de2e	-0.049040012
191	0xbdc819e8	-0.09770566
192	0x3d77138b	0.060321372
193	0xbe0aa372	-0.13538912
194	0x39fdc97c	0.00048406038
195	0xbdddb0f8	-0.1082477
196	0xbdba30d8	-0.090913475
197	0x3d0c769b	0.0342928
198	0x3e3b73f4	0.18305951
199	0xbcea018d	-0.028565193
200	0x3c59909b	0.013279106
201	0x3e90f809	0.28314236
202	0x3f23a4ad	0.6392315
203	0x3e985972	0.2975574
204	0xbc85b584	-0.016321905
205	0xbdfa4c26	-0.122215554
206	0x3e5faec2	0.21844009
207	0xbe0b709e	-0.13617179
208	0xbd8e809b	-0.06958123
209	0x3e0e5df9	0.13903035
210	0xbd499e36	-0.049223147
211	0x3d8c7fe6	0.06860332
212	0x3c5d106e	0.013492687
213	0xbcfbb5a6	-0.030726265
214	0xbb0c55d8	-0.0021413472
215	0xbded0f84	-0.11575225
216	0x3d909986	0.07060532
217	0xbd682c40	-0.056682825
218	0x3ee94b87	0.45565435
219	0xbe03e74d	-0.12881203
220	0xbb2c72fc	-0.0026313653
221	0xbda3112c	-0.0796226
222	0x3e0a7183	0.13519864
223	0xbdbcd0a0	-0.092194796
224	0xbc160a27	-0.009157694
225	0x3da91bc6	0.082572505
226	0x3c81fc84	0.01586748
227	0x3decff0b	0.11572083
228	0x3dc20579	0.094737
229	0xbdce36b3	-0.10069027
230	0xbe798a04	-0.24369055
231	0x3d8f4acc	0.06996688
232	0xbde903d4	-0.11377683
233	0xbe00251a	-0.12514153
234	0x3e27631e	0.16346404
235	0xbd80a94b	-0.0628229
236	0x3e056908	0.13028347
237	0xbcfb739b	-0.030694773
238	0xbe154ec2	-0.14580825
239	0x3d83e291	0.064396985
240	0xbdec6111	-0.115419514
241	0x3dc014d9	0.093789764
242	0x3e1569eb	0.14591186
243	0xbea92752	-0.33037812
244	0xbd923a93	-0.071400784
245	0x3f26ebe2	0.6520368
246	0x3f707094	0.9392178
247	0x3d8a5bba	0.06755777
248	0xbd70d36d	-0.05879538
249	0x3e8454ab	0.25845847
250	0x3d9fcc8a	0.078026846
251	0x3d4fb801	0.05071259
252	0xbdd54e13	-0.10415282
253	0xbd48c4e6	-0.049015902
254	0xbd95c252	-0.07312454
255	0xbd80ed33	-0.06295242

bias f4 [12]
0	0x3f32f7ef	0.69909567
1	0x3dc28364	0.09497717
2	0x3ed5593e	0.4166965
3	0x3c1b6edf	0.009486883
4	0x3e6c1a00	0.23056793
5	0x3eef40a7	0.46729013
6	0xbebc7637	-0.3680894
7	0x3f2921d0	0.6606722
8	0x3e50f526	0.20406017
9	0xbef86286	-0.48512667
10	0x3edb967c	0.42888248
11	0x3e6ea043	0.23303322

weight f4 [24, 12, 4, 4]
0	0xbd0902df	-0.033450004
1	0x3dea9600	0.114543915
2	0xbde5cdb6	-0.11220877
3	0x3e1ae22c	0.1512534
4	0xbda993d7	-0.08280151
5	0x3e2125c3	0.15737061
6	0x3e1f38f1	0.15549065
7	0x3cb09ce6	0.02155919
8	0xbe5e83ac	-0.21729916
9	0xbe05be83	-0.13060956
10	0xbd65f42f	-0.056141075
11	0xbd59fa16	-0.053217016
12	0xbc777e36	-0.015105775
13	0x3d3fd629	0.0468351
14	0x3d885eee	0.066587314
15	0x3abf2f2f	0.0014586205
16	0x3d6105d8	0.054937214
17	0x3d9dc16c	0.07702908
18	0xbd98dc2e	-0.07463871
19	0xbcf20ba5	-0.029546568
20	0x3d43464c	0.047674462
21	0x3e260c48	0.16215622
22	0xbc318073	-0.010833847
23	0x3cbfec39	0.02342807
24	0xbd3afff3	-0.04565425
25	0x3dda8e55	0.10671679
26	0x3cf6527a	0.030068625
27	0x3c04043b	0.008057649
28	0x3d874ac8	0.0660606
29	0x3c86bbf9	0.016447054
30	0xbdcb6ca9	-0.09932835
31	0x3d93dbc9	0.07219655
32	0xb758ead8	-1.2929282e-05
33	0xbd62f885	-0.055412788
34	0x3c90d4ba	0.01767956
35	0x3d908477	0.07056516
36	0x3dc06108	0.09393507
37	0xbe913396	-0.2835967
38	0xbd814ca8	-0.06313449
39	0xbe1d5d4a	-0.15367618
40	0xbdfdc28b	-0.12390622
41	0x3e81237f	0.25222394
42	0xbe0be31e	-0.13660857
43	0x3d953d56	0.072870895
44	0x3d8374dc	0.064187735
45	0x3d88482a	0.06654389
46	0x3d605b1c	0.05477439
47	0xbddf0db8	-0.108912885
48	0x3e07df22	0.13268712
49	0xbe36a43e	-0.17836091
50	0x3dd316c1	0.10307074
51	0x3da9f256	0.08298175
52	0x3dfa15f3	0.12211218
53	0xbe49115c	-0.19635528
54	0x3eae2ac3	0.34017
55	0x3e1402ea	0.14454237
56	0xbcdd6496	-0.027025502
57	0xbd5dde4e	-0.054167084
58	0x3e877289	0.2645457
59	0xbd368298	-0.044558138
60	0x3d1a3c50	0.037655175
61	0xbd2e2962	-0.042519934
62	0x3ddfba99	0.109242626
63	0x3d13f4c5	0.036122102
64	0x3d3bf207	0.045885112
65	0x3e9d7832	0.30755764
66	0xbe9ea44a	-0.30984718
67	0xbc2b855f	-0.01046881
68	0x3da758f8	0.08171266
69	0x3e8737c1	0.26409724
70	0xbe6a2080	-0.2286396
71	0xbd932fc7	-0.07186847
72	0x3d4c3147	0.049851682
73	0x3debbbf9	0.11510462
74	0xbd7ff3a0	-0.0624882
75	0xbd2443dc	-0.04010378
76	0x3d4390b1	0.04774541
77	0x3ce7c108	0.028290287
78	0x3d6ce904	0.05783941
79	0xbd152a47	-0.036417272
80	0xbcfbf14d	-0.03075471
81	0x3c062203	0.00818682
82	0x3cb17def	0.021666495
83	0xbd6a456e	-0.05719512
84	0x3d258bbe	0.04041647
85	0x3e3e5001	0.18585207
86	0xbe3a0638	-0.18166435
87	0x3df45f82	0.11932279
88	0xbd03d323	-0.032183778
89	0x3e52629d	0.2054543
90	0xbdb2175b	-0.08695861
91	0xbe1bacd3	-0.15202646
92	0xbc1fc4fb	-0.009751554
93	0x3d876195	0.06610409
94	0xbacb8828	-0.0015528249
95	0xbb3a3a50	-0.0028416105
96	0xbd8e5b04	-0.069509536
97	0x3da02a0e	0.07820521
98	0xbc6837bd	-0.014173445
99	0xbcfa569e	-0.03055888
100	0xbdbc8eac	-0.092069
101	0x3e8e7a3f	0.2782764
102	0xbd063a56	-0.032770477
103	0x3d9ed8ed	0.07756219
104	0x3e19499e	0.14969489
105	0xbdf8a296	-0.12140386
106	0x3d19dc20	0.037563443
107	0xbc44319c	-0.011974718
108	0xbc25ab06	-0.010111576
109	0xbd823de3	-0.0635946
110	0xbd024049	-0.03179959
111	0xbd3bdf27	-0.04586711
112	0x37ff86a1	3.046106e-05
113	0x3e182dba	0.14861193
114	0x3e045d74	0.12926275
115	0xbd98d1c6	-0.07461886
116	0xbdc28a29	-0.09499008
117	0x3eb7f2b0	0.35927343
118	0xbd11825b	-0.035524707
119	0xbcb787a5	-0.022403548
120	0x3e4999f2	0.19687632
121	0x3e20e40d	0.15711994
122	0xbd378235	-0.04480191
123	0xbe05a85c	-0.13052505
124	0x3e1cad70	0.15300536
125	0x3d98f63a	0.07468839
126	0x3d4651b8	0.048417777
127	0x3d2bddbb	0.041959506
128	0xbe00797a	-0.1254634
129	0xbb0870f1	-0.0020819271
130	0x3d59a02a	0.05313126
131	0x3d6c4a86	0.05768826
132	0xbe063ce8	-0.13109171
133	0xbe090b5e	-0.13383242
134	0xbc6e73e0	-0.014553994
135	0x3db1859c	0.08668062
136	0x3d3ffd30	0.046872318
137	0xbdc165b6	-0.09443228
138	0x3e0188b0	0.12649798
139	0x3e365aca	0.17808071
140	0xbb23bb49	-0.0024983457
141	0xbcb8e176	-0.022568446
142	0x3d822575	0.063548006
143	0xbd27e3b1	-0.040988628
144	0xbdcb6174	-0.09930697
145	0xbe05f1d6	-0.13080534
146	0x3da3bbd8	0.07994813
147	0x3d841f88	0.064513266
148	0xbd8b702d	-0.06808505
149	0xbe5452d6	-0.20734724
150	0x3e96f651	0.294848
151	0xbe64f197	-0.22357784
152	0xbd946cb8	-0.07247299
153	0xbe14562e	-0.14486
154	0xbdab5638	-0.08366054
155	0x3ddc4d3b	0.10756918
156	0x3cb282ce	0.021790888
157	0x3d020507	0.031743076
158	0x3c039798	0.008031748
159	0x3d20ffbb	0.039306384
160	0x3d2aef71	0.041732255
161	0xbb9ff808	-0.0048818626
162	0x3d53c668	0.051702887
163	0xbcdad459	-0.026712583
164	0xbc96d3dd	-0.018411571
165	0x3ebc7f07	0.36815664
166	0xbe203cdc	-0.15648216
167	0x3e108b68	0.1411568
168	0x3daf45f9	0.08558268
169	0x3e22442e	0.15846321
170	0xbcb3bf75	-0.02194188
171	0x3e057525	0.13032968
172	0xbc4ab286	-0.012371665
173	0xbd0d66f0	-0.034521997
174	0x3d31aa39	0.043375228
175	0x3d920e81	0.07131673
176	0x3d696f3f	0.05699086
177	0x3dc4472d	0.09583888
178	0xbd82b013	-0.0638124
179	0x3d6a6580	0.057225704
180	0x3e18c57e	0.14919087
181	0xbe4b61e8	-0.19861567
182	0xbcb1de28	-0.021712378
183	0xbddbb830	-0.1072849
184	0x3d4e1cf9	0.0503206
185	0x3c84b006	0.016197216
186	0x3e2f63d7	0.1712793
187	0x3d5f80f5	0.054566342
188	0xbc8fdb72	-0.017560694
189	0x3cff75cb	0.031184098
190	0xbca21338	-0.019784555
191	0x3d839966	0.06425743
192	0xbe952cd4	-0.29135764
193	0x3eae69fd	0.34065238
194	0x3e82bd8e	0.25535244
195	0xbe0c1b6a	-0.13682333
196	0x39994a2a	0.0002923769
197	0x3e8a76e0	0.2704382
198	0x3eb50083	0.35351953
199	0x3cece0b6	0.028915744
200	0x3e228493	0.15870886
201	0xbe06d8de	-0.13168666
202	0xbedb434e	-0.42824787
203	0xbeaa3eee	-0.33251137
204	0x3e4a0a4f	0.19730495
205	0x3e14ceb6	0.14531979
206	0x3c122998	0.00892105
207	0x3e4b7081	0.19867136
208	0xbcb2c08a	-0.021820325
209	0x3ca9e5bb	0.020739427
210	0x3cf32b84	0.029683836
211	0xbc7dcce9	-0.015490749
212	0x3ca8b648	0.020594731
213	0x3e810cbf	0.25205037
214	0x3dcb0349	0.09912736
215	0x3e12205f	0.14270161
216	0x3dd48d17	0.10378473
217	0x3e9d52f8	0.30727363
218	0xbf362d92	-0.71163285
219	0xbd347026	-0.044052266
220	0x3d890894	0.06691089
221	0xbd7dabcc	-0.061931416
222	0xbd4f8f47	-0.05067375
223	0x3db0d77b	0.0863485
224	0x3d6cc631	0.057806198
225	0xbe5c5fe7	-0.21520959
226	0xbcbc296e	-0.022968974
227	0x3dffced6	0.12490623
228	0xbb5987cd	-0.0033192516
229	0x3e24e314	0.16102248
230	0xbda0670a	-0.07832153
231	0x3d90ba28	0.070667565
232	0x3e3d83b7	0.18507276
233	0x3e03d392	0.12873676
234	0xbf0a1815	-0.53942996
235	0xbe83f5b7	-0.25773403
236	0xbe0209ea	-0.12699094
237	0xbd984304	-0.07434657
238	0x3da59e64	0.08086851
239	0x3e75449c	0.23951954
240	0xbdea7f58	-0.1145007
241	0x3e005484	0.1253224
242	0xbd88bc35	-0.06676523
243	0xbd854cdf	-0.065088026
244	0xbdca9920	-0.098924875
245	0x3aba158a	0.0014197093
246	0x3e95b6a2	0.292409
247	0xbc8eeccc	-0.017446898
248	0xbd9c548f	-0.07633316
249	0x3aaf329a	0.0013366521
250	0xbea9e285	-0.33180633
251	0x3d1c6b4c	0.038188264
252	0x3dcd3377	0.10019582
253	0xbcdb232e	-0.026750173
254	0xbd2d7e57	-0.042356815
255	0xbc9e6985	-0.019337425

bias f4 [24]
0	0x3eb7cd43	0.3589879
1	0x3eacaafe	0.33724207
2	0x3ec85dc5	0.3913404
3	0x3f3c006f	0.7343816
4	0x3cc90f2b	0.024543365
5	0x3e50e563	0.20400004
6	0x3e56f598	0.20992124
7	0x3efc088a	0.49225265
8	0x3f1a603a	0.6030308
9	0x3e670f53	0.2256444
10	0xbe55c017	-0.20874058
11	0x3ebd9f3f	0.37035558
12	0x3ee914a1	0.4552355
13	0x3f0b975f	0.5452785
14	0x3eb79af5	0.3586041
15	0x3e9301cd	0.2871231
16	0xbe6ce608	-0.23134625
17	0x3ec850ff	0.39124295
18	0x3eccf5cc	0.40031278
19	0x3ec9559b	0.39323124
20	0x3ec431c0	0.38319206
21	0xbdd6cae0	-0.10487914
22	0x3e3ba186	0.18323335
23	0x3ef5dccf	0.48020026

weight f4 [48, 24, 4, 4]
0	0xbde139df	-0.10997366
1	0x3e151979	0.14560498
2	0xbd95fbe3	-0.07323434
3	0x3d115d62	0.035489447
4	0xbd30a98e	-0.04313045
5	0x3d250627	0.04028907
6	0xbe1347d1	-0.14382865
7	0x3c0ffb82	0.0087879915
8	0x3e6de504	0.23231894
9	0x3cdac442	0.026704911
10	0x3c839310	0.016061336
11	0xbe075c57	-0.13218819
12	0xbd58121e	-0.052751653
13	0xbca1e648	-0.019763127
14	0xbdaddf33	-0.084898375
15	0xbd543514	-0.05180843
16	0xbd347b04	-0.04406263
17	0xbc6b2a6e	-0.014353378
18	0xbe234852	-0.15945557
19	0xbdbb0dda	-0.09133501
20	0x3d4abeec	0.049498484
21	0x3e0ae6b7	0.13564573
22	0x3e868fdd	0.26281634
23	0x3e1c5f16	0.15270647
24	0x3e59809c	0.21240467
25	0x3dfe9a61	0.12431789
26	0x3cb5bd42	0.022184972
27	0xbe2fa57e	-0.17152974
28	0xbcb80435	-0.022462944
29	0x3d925d4d	0.07146702
30	0x3e29ce5b	0.16582625
31	0x3dd89dc3	0.10576966
32	0xbd225f2c	-0.039641544
33	0xbd8d1d6f	-0.0689038
34	0x3e394c84	0.18095595
35	0x3c4318f7	0.011907808
36	0x3cbd291b	0.02309089
37	0xbe025321	-0.12727024
38	0x3d096069	0.03353921
39	0x3d2a80cc	0.041626737
40	0x3ccf44a2	0.025301281
41	0xbd445c12	-0.047939368
42	0x3d8e8117	0.06958216
43	0xbbd0c9f7	-0.0063717323
44	0x3b8414d6	0.004030804
45	0xbd96e07b	-0.07367035
46	0xbbab3c24	-0.005225675
47	0xbccc74ea	-0.024958093
48	0x3e96ec78	0.29477286
49	0xbd5a0a2d	-0.05323236
50	0x3b82290b	0.003972178
51	0xbdb4675f	-0.08808779
52	0x3dea9e29	0.11455948
53	0xbd8b0691	-0.06788362
54	0x3deeaeff	0.116544716
55	0x3e291adf	0.16514157
56	0xbd843e61	-0.0645721
57	0x3e40bf3e	0.18822953
58	0x3e98303d	0.29724303
59	0x3df44f06	0.11929135
60	0xbd739103	-0.059464466
61	0xbda6a8dd	-0.08137677
62	0xbdc0bfb9	-0.09411568
63	0xbc09a81a	-0.008401895
64	0x3cca8e2e	0.024726
65	0x3ce1c87c	0.027561419
66	0xbd6eb2d9	-0.05827603
67	0x3c1556aa	0.009114901
68	0xbda0d1ff	-0.078525536
69	0x3d4e5d61	0.05038202
70	0x3d26af6d	0.040694643
71	0x3cd45b3e	0.025922414
72	0x3d1a90f9	0.037735913
73	0xbd683390	-0.0566898
74	0x3e1a2a62	0.1505523
75	0x3c373be8	0.011183716
76	0xbd392add	-0.045206893
77	0x3d352a5b	0.044229846
78	0x3ddb87ab	0.10719236
79	0x3c25cc73	0.010119545
80	0xbc86ae42	-0.016440514
81	0xbd30ec88	-0.043194324
82	0x3ce05305	0.027383337
83	0x3d7eb007	0.06217959
84	0x3c8cc712	0.017184768
85	0x3dab8e3a	0.08376737
86	0xbe1e0082	-0.15429881
87	0xbdbff7d2	-0.0937344
88	0xbdbc8797	-0.09205549
89	0xbe7c5e16	-0.24645266
90	0xbe0a0c76	-0.13481316
91	0xbd07520f	-0.03303724
92	0xbaf4f5ce	-0.0018688978
93	0x3ded616f	0.115908496
94	0x3bbd3399	0.005773973
95	0xbc7632d0	-0.015026763
96	0xbcd6154a	-0.026133198
97	0xbd50bda2	-0.050962098
98	0x3cbef561	0.023310365
99	0x3c234b1f	0.009966641
100	0x3d69d079	0.05708358
101	0x3e45cbdb	0.19316046
102	0x3c8b31a2	0.01699144
103	0x3d87c04c	0.066284746
104	0xbc72bc18	-0.014815353
105	0xbe7164cf	-0.23573612
106	0xbd5c7042	-0.053817995
107	0xbd07e077	-0.03317305
108	0x3bbd8600	0.0057837963
109	0x3de44dff	0.11147689
110	0x3d72a46d	0.05923884
111	0x3d007927	0.03136554
112	0x3b24bc8c	0.0025136797
113	0xbd53b5b2	-0.05168695
114	0x3c8c12ec	0.017098866
115	0xbdc0e2ef	-0.09418284
116	0x3ce5bc9a	0.028044034
117	0xbe481e57	-0.19542824
118	0xbb95c326	-0.0045703826
119	0xbd226550	-0.0396474
120	0x3d632015	0.055450518
121	0x3e1b2510	0.15150857
122	0x3e83ccc9	0.25742176
123	0xb9f75baf	-0.0004717982
124	0x3d532860	0.051552176
125	0xbdd94893	-0.106095456
126	0x3d5b61c4	0.053560033
127	0xbd4f6e54	-0.050642326
128	0x3c5683aa	0.013092915
129	0xbde61d4f	-0.11236059
130	0x3cad2f9e	0.02114087
131	0xbd9ec5a9	-0.077525444
132	0xbe13c8be	-0.14432046
133	0x3ddd0509	0.10791976
134	0x3e9a8503	0.30179605
135	0x3c41d9b5	0.011831691
136	0x3d9de46f	0.07709586
137	0xbdbf3a3c	-0.09337279
138	0x3e87357f	0.26408002
139	0xbdd1f2c3	-0.10251381
140	0xbd11b18e	-0.03556972
141	0x3c63aa0d	0.013895524
142	0x3cbcdd6b	0.023054799
143	0x3d5dbcd5	0.054135162
144	0x3d620678	0.05518195
145	0x3d9c9d5e	0.07647203
146	0xbc5b5a06	-0.0133881625
147	0x3ce87560	0.028376281
148	0x3c6143a1	0.013749034
149	0x3eab9c27	0.33517572
150	0x3d24e631	0.04025859
151	0x3d1e505a	0.038650848
152	0xbc23b8cd	-0.00999279
153	0x3e866786	0.26250857
154	0xbe41bcf6	-0.18919739
155	0x3c1e5b95	0.00966539
156	0x3c90a1db	0.017655304
157	0x3cca859d	0.024721915
158	0x3d51e4ba	0.05124352
159	0x3d087862	0.03331793
160	0x3b8496d0	0.0040462986
161	0x3ce88a0f	0.028386144
162	0x3d563192	0.052293368
163	0xbaa99872	-0.0012939109
164	0x3c144fc6	0.009052223
165	0x3d33c9b4	0.04389353
166	0x3dd558e7	0.104173474
167	0x3d20ffc1	0.039306406
168	0xbd30e8ee	-0.04319089
169	0xbe53ac72	-0.20671251
170	0xbdaed6c9	-0.08537061
171	0xbdb4c108	-0.0882588
172	0x3cea632e	0.028611746
173	0x3e1791e9	0.14801754
174	0x3d9eeb38	0.07759708
175	0x3d80c92c	0.062883705
176	0xbd3f92d2	-0.046770878
177	0x3cdde1b5	0.027085165
178	0xbd85b3c5	-0.06528429
179	0x3ced84bc	0.028993957
180	0x3b898fa0	0.0041980296
181	0x3c1b6035	0.009483387
182	0xbc1f646c	-0.009728532
183	0xbe08f18d	-0.13373394
184	0xbd1839de	-0.03716456
185	0xbd695a9c	-0.056971177
186	0x3e9c1827	0.30487177
187	0xbd2fd82b	-0.042930763
188	0xbce67bed	-0.028135264
189	0x3daed1e5	0.08536128
190	0xbd18b90e	-0.037285857
191	0x3d876705	0.06611446
192	0x3d4b75e3	0.049672972
193	0xbd2f2548	-0.042760164
194	0xbd2c66d8	-0.042090267
195	0xbd7cf6ce	-0.06175881
196	0x3cee47b2	0.029086921
197	0xbd97b017	-0.07406633
198	0xbdb0fd52	-0.08642067
199	0x3c2e79da	0.010649169
200	0xbd46cd40	-0.048535585
201	0xbee93409	-0.45547512
202	0xbece1ff4	-0.40258753
203	0xbd594e2b	-0.053053062
204	0xbc235e18	-0.009971164
205	0x3c1df85b	0.009641732
206	0xbb5e7220	-0.0033942536
207	0x3ccbd521	0.024881901
208	0x3d3c45a3	0.04596485
209	0x3d899da2	0.06719519
210	0x3d9c0c53	0.07619538
211	0xbd4adcc4	-0.049526945
212	0x3e43850f	0.19093727
213	0x3dce3b80	0.100699425
214	0x3e1534ef	0.14570974
215	0xbdc31e1f	-0.095272295
216	0x3dcd5f5e	0.100279555
217	0xbec79123	-0.38977918
218	0xbe8abd9d	-0.27097788
219	0xbc73016f	-0.014831885
220	0x3dc413a5	0.095740594
221	0xbe69a1db	-0.22815649
222	0xbd742772	-0.05960793
223	0x3dcaa411	0.098945744
224	0x3d0c4d3c	0.034253344
225	0xbd18a4a7	-0.0372664
226	0xbc0c96ee	-0.008580906
227	0xbd2e1bd9	-0.042507026
228	0xbdf67af6	-0.12035172
229	0x3e1bef98	0.15228117
230	0x3d12f0a6	0.03587403
231	0xbd1ecb42	-0.03876806
232	0xbd3dc307	-0.04632857
233	0x3d05d1f9	0.03267095
234	0x3e41d7f7	0.1893004
235	0xbcbb92d1	-0.022897156
236	0x3b1443e2	0.002262347
237	0xbd668d56	-0.056287132
238	0xbdd605c7	-0.10450321
239	0xbd882783	-0.06648161
240	0x3d1bbde0	0.038022876
241	0x3c4dee9a	0.012569094
242	0x3df672de	0.12033628
243	0xbd9d7811	-0.076889165
244	0xbced2222	-0.02894694
245	0xbcdde8b9	-0.02708851
246	0x3df1dad6	0.11809318
247	0xbdea1f45	-0.114317454
248	0x3d0748fc	0.033028588
249	0x3da99005	0.08279423
250	0x3e30afae	0.17254516
251	0x3e8da80a	0.27667266
252	0xbd6d6129	-0.057953987
253	0xbe013116	-0.12616381
254	0xbd2d0b53	-0.042247128
255	0xbd0ba4ec	-0.03409283

bias f4 [48]
0	0x3e122b79	0.14274396
1	0x3eda049d	0.42581645
2	0x3ea37d7c	0.31931674
3	0xbe13f063	-0.14447169
4	0x3e054378	0.13014019
5	0xbe3f72d9	-0.18696155
6	0x3e945cbc	0.28977
7	0x3ec885b9	0.39164522
8	0x3eac31f6	0.33631867
9	0x3dfb79e5	0.12279109
10	0xbe22fdf7	-0.15917192
11	0x3de4def8	0.111753404
12	0xbe90b290	-0.28261232
13	0x3c7230da	0.014782155
14	0xbe058807	-0.13040172
15	0xbdefb2dc	-0.117040366
16	0x3e8142dd	0.25246325
17	0xbd27cf52	-0.0409692
18	0xbd8dce7a	-0.06924148
19	0xbea5ce6f	-0.3238406
20	0xbe47ee0b	-0.195244
21	0xbd9fc285	-0.078007735
22	0x3f1414c0	0.5784416
23	0x3ed949bf	0.42439076
24	0xbe5cd2b4	-0.21564752
25	0x3ee260f9	0.4421461
26	0x3e907a48	0.28218293
27	0xbe97975a	-0.2960766
28	0xbe330a94	-0.17484504
29	0x3e5f7f8a	0.21825996
30	0x3e0972ee	0.13422748
31	0x3e9dd7c7	0.30828688
32	0x3dc8b3f5	0.09799949
33	0x3ed41999	0.4142578
34	0x3e82fdad	0.25584164
35	0x3e4ddd8d	0.20104046
36	0xbd87186d	-0.06596456
37	0x3e468945	0.19388302
38	0x3e0522e7	0.13001595
39	0x3e47847e	0.19484136
40	0x3d332dbd	0.04374479
41	0x3e3e4898	0.1858238
42	0x3ce5687c	0.028003924
43	0xbe1010cf	-0.14068912
44	0xbe691b13	-0.22764234
45	0x3eb244ab	0.34818015
46	0x3e1077ba	0.14108172
47	0xbe208abd	-0.15677924

weight f4 [48, 24, 4, 4]
0	0xbd1c78ca	-0.03820113
1	0x3df258eb	0.11833366
2	0xbcce3728	-0.025172785
3	0x3d19e894	0.03757532
4	0x3c9ed23d	0.019387359
5	0x3e32ff8e	0.17480299
6	0x3d6bc5ae	0.05756157
7	0x3db64174	0.08899203
8	0xbbec81c6	-0.0072176186
9	0xbd2646fe	-0.040595047
10	0x3be29b59	0.0069154915
11	0x3d842e04	0.06454089
12	0x3dc08b16	0.094015285
13	0x3cf5e83e	0.030017968
14	0xbd966cb8	-0.07344955
15	0xbd0207bf	-0.03174567
16	0x3df72ba0	0.12068868
17	0x3d4ca8dc	0.049965724
18	0xbcf43fe4	-0.029815622
19	0xbca31ddc	-0.019911699
20	0x3cd1a756	0.025592487
21	0x3dac99a7	0.08427744
22	0x3bc5a1a3	0.0060312315
23	0x3d25f8eb	0.04052059
24	0x3cb0fa83	0.021603828
25	0xbdd9e1cf	-0.10638773
26	0xbe2f3e63	-0.17113642
27	0x3d29c4c3	0.041447412
28	0xbdd8264a	-0.10554178
29	0x3c07b773	0.008283484
30	0x3db7a970	0.089678645
31	0x3d874f15	0.066068806
32	0x39db9417	0.0004188127
33	0xbcf2708d	-0.029594684
34	0x3d674916	0.056466185
35	0x3d8ee191	0.06976617
36	0x3e26c332	0.16285399
37	0x3caa1354	0.02076117
38	0xbdaaa36e	-0.08331953
39	0x3cff4eed	0.031165564
40	0x3e0640cb	0.13110654
41	0xbc8121f1	-0.015763255
42	0xbe3f96c0	-0.1870985
43	0xbcc9c310	-0.024629146
44	0xbcc442a5	-0.02395756
45	0x3cac845e	0.021059211
46	0xbd3bb930	-0.045830905
47	0x3cad6d4c	0.02117028
48	0xbca5b549	-0.020228045
49	0xbd7cbf72	-0.061706014
50	0x3d69e5a9	0.057103787
51	0xbd0308c9	-0.0319908
52	0x3d2dcc4a	0.042431153
53	0xbe4b6448	-0.19862473
54	0x3e70f5fd	0.23531337
55	0x3e0451a7	0.12921773
56	0xbbe62d3f	-0.0070244367
57	0x3e7283d7	0.23683105
58	0x3ecae42c	0.39627206
59	0x3d85b984	0.06529525
60	0xbc3d9410	-0.011570945
61	0xbd5589f7	-0.052133527
62	0x3ce68715	0.028140584
63	0x3c820467	0.01587124
64	0xbc24ea3a	-0.01006561
65	0xbc98d65d	-0.018656904
66	0xbcba779b	-0.02276211
67	0x3d91fcc3	0.071282886
68	0x3dc42e16	0.09579103
69	0x3e0da012	0.13830593
70	0x3d747189	0.059678588
71	0x3d12d462	0.035847075
72	0x3ce9802c	0.0285035
73	0xbcd4f64a	-0.025996346
74	0xbd820403	-0.063484214
75	0x3d9502d4	0.0727593
76	0xbdab53b4	-0.083655745
77	0x3d43737f	0.047717568
78	0xbdce84a5	-0.10083894
79	0xbded4c36	-0.11586802
80	0x3d4604ee	0.048344545
81	0xbc443158	-0.011974655
82	0x3de50e6f	0.111843936
83	0xbd7b8758	-0.06140837
84	0x3c093746	0.008374995
85	0x3d8cb6b7	0.068707876
86	0x3eaf39d2	0.342238
87	0x3cad22cf	0.021134762
88	0x3db4fed0	0.08837664
89	0xbe8694c2	-0.26285368
90	0xbb40495f	-0.0029340608
91	0xbd2d4b6b	-0.042308252
92	0x3da80e54	0.08205858
93	0xbe241a3e	-0.16025636
94	0x3dac22a1	0.084050424
95	0x3d83060d	0.063976385
96	0xbc93d344	-0.018045075
97	0xbd3be8a8	-0.045876175
98	0x3caaeda3	0.020865267
99	0xbd6a9fbc	-0.05728124
100	0xbc0d8d4c	-0.008639645
101	0xbd5b068b	-0.053473037
102	0xbd472676	-0.048620664
103	0x3d7f8adf	0.062388297
104	0xbd54be7f	-0.051939484
105	0xbd018b2f	-0.031626876
106	0xbd2699d1	-0.040674035
107	0xbd027fbd	-0.031860102
108	0x3c8f37d7	0.017482681
109	0x3e060bff	0.13090514
110	0xba2afecc	-0.0006522953
111	0x3c906b59	0.017629312
112	0x3c96fa63	0.01842994
113	0x3c7bd6df	0.0153710535
114	0xbd0e0e62	-0.034681685
115	0x3dca34d4	0.098733574
116	0x3d92ff5b	0.071776114
117	0x3e109403	0.14118962
118	0x3e20b455	0.15693791
119	0xbbcc71e1	-0.0062391614
120	0xbdd715ad	-0.10502181
121	0x3d6d3d09	0.057919536
122	0x3e394250	0.18091702
123	0x3d06884b	0.032844823
124	0x3d80b5da	0.062846854
125	0xbd86b1cb	-0.0657688
126	0x3d22bf3e	0.039733164
127	0x3d9fe801	0.07807923
128	0xbd51bcd9	-0.05120549
129	0xbdbf6f16	-0.0934736
130	0xbd186047	-0.037201192
131	0xbc092203	-0.008369925
132	0x3d3136df	0.04326522
133	0xbdbc767b	-0.09202286
134	0x3e2e9094	0.1704734
135	0x3d9ebb2d	0.07750545
136	0xbdb80c59	-0.0898673
137	0xbeef7b33	-0.4677368
138	0xbb9d9fc2	-0.0048103044
139	0xbc80d92d	-0.015728557
140	0x3d1b8325	0.037966866
141	0x3c78eb96	0.015192887
142	0xbcd1c0d9	-0.025604652
143	0xbd4bc9d9	-0.049753044
144	0xbd164d9e	-0.036695115
145	0x3d2e7c0b	0.042598765
146	0x3c0268c5	0.007959549
147	0xbd09fe01	-0.033689503
148	0x3dbbf814	0.091781765
149	0xbd590bca	-0.05298976
150	0xbce332e1	-0.027734222
151	0x3d1e5fa8	0.038665444
152	0x3d9dcf13	0.07705512
153	0x3e7e06fa	0.24807349
154	0x3e4b309d	0.19842763
155	0x3d83b2cc	0.06430587
156	0xbd64dfa3	-0.05587734
157	0xbe02f0ba	-0.12787142
158	0xbdad4173	-0.08459749
159	0xbc055e8c	-0.0081402175
160	0x3c126b86	0.008936768
161	0x3c4d2e4b	0.012523244
162	0x3d543b3f	0.051814314
163	0xbe47035e	-0.19434878
164	0xbd3dc9d2	-0.04633505
165	0xbd09e907	-0.033669498
166	0x3c12d489	0.008961805
167	0x3d8237a7	0.06358271
168	0xbd177d1e	-0.036984555
169	0xbdb6aa17	-0.08919161
170	0xbd6b530b	-0.057452243
171	0xbdc863ab	-0.09784635
172	0x3b52ea42	0.0032183086
173	0x3d25c347	0.040469434
174	0xbc2b22bd	-0.010445294
175	0x3d6fc0dc	0.058533534
176	0xbe19c6a1	-0.15017177
177	0x3d8b74e1	0.06809402
178	0xbcf25e6c	-0.02958604
179	0x3c977e11	0.01849273
180	0x3dabea97	0.08394354
181	0x3ce0a7a6	0.027423691
182	0x3ce8db16	0.02842478
183	0x3cfadd64	0.030623145
184	0xbd3e3a38	-0.04644224
185	0xbd00a4bf	-0.031407114
186	0xbcbba144	-0.022904046
187	0x3d82543a	0.06363721
188	0x3ca83e49	0.020537512
189	0xbcaf7978	-0.021420226
190	0xbc681305	-0.014164691
191	0x3ca9d737	0.020732505
192	0xbd5d542b	-0.054035347
193	0xbe0d6104	-0.1380654
194	0x3ea05b5b	0.313197
195	0xbd22a381	-0.03970671
196	0xbd0c3364	-0.034228697
197	0xbd256849	-0.040382657
198	0xbc9b06af	-0.018924085
199	0x3e0cba37	0.1374291
200	0x3d9cb642	0.076519504
201	0xbe858f9a	-0.26086122
202	0xbed5c677	-0.4175298
203	0xba427b8b	-0.0007418922
204	0xbbe7db36	-0.0070756925
205	0x3db13576	0.08652775
206	0xbbc93a20	-0.0061409622
207	0xbaccca47	-0.0015624248
208	0x3e46f3d8	0.19428957
209	0xbcfaca2d	-0.030613983
210	0xbddc4519	-0.10755367
211	0xbe788e15	-0.2427295
212	0x3d836e7e	0.06417559
213	0xbc1da385	-0.009621506
214	0x3e578dc5	0.21050175
215	0x3e3012c8	0.17194664
216	0x3dbd6056	0.0924689
217	0x3d94f061	0.07272411
218	0xbd2e4391	-0.042544905
219	0x3e3ef0c5	0.18646534
220	0x3d892417	0.06696337
221	0xbe1ad592	-0.15120533
222	0x3e007b47	0.12547027
223	0x3cac50d2	0.021034632
224	0x3c5b554a	0.013387034
225	0x3d352883	0.044228088
226	0x3e4503bb	0.19239704
227	0x3c979452	0.018503342
228	0xbdb4258f	-0.08796226
229	0x3df7244e	0.120674714
230	0xbe17361f	-0.1476674
231	0xbddf3fd6	-0.109008476
232	0x3d5c330b	0.053759616
233	0x3c28114e	0.010258032
234	0x3e9c2775	0.30498853
235	0xbbf32953	-0.0074206977
236	0xbb840474	-0.004028851
237	0xbdf17782	-0.117903724
238	0x3e4ef9ee	0.20212528
239	0xbd6ad104	-0.05732824
240	0x3d64c3cb	0.055850785
241	0x3d97fa5d	0.074208
242	0xbd752e8a	-0.059858836
243	0x3d6ceca9	0.057842884
244	0xbc8c3354	-0.017114319
245	0x3dcdb06a	0.10043414
246	0xbd1fefe8	-0.03904715
247	0x3c11ef21	0.00890711
248	0xbcedb75b	-0.029018095
249	0x3bfd317d	0.0077268467
250	0xbdc5107c	-0.09622285
251	0x3bf5f27e	0.007505714
252	0x3d306e13	0.043073725
253	0x3bcd0ba1	0.00625749
254	0x3d07cf44	0.03315665
255	0x3d5ce25e	0.053926818

bias f4 [24]
0	0xbed0d2a8	-0.40785718
1	0xbea44626	-0.3208477
2	0xbedc6d64	-0.43052208
3	0xbe8eb845	-0.27874961
4	0x3f353a5a	0.7079216
5	0x3be2f506	0.0069261817
6	0xbd91a413	-0.07111373
7	0xbd0581f3	-0.032594632
8	0x3e932c08	0.2874453
9	0x3f4146a3	0.7549841
10	0xbe80399d	-0.25043955
11	0xbe7d2641	-0.24721624
12	0xbdee5f9e	-0.11639331
13	0xbf221e05	-0.63327056
14	0xbdd90db8	-0.1059832
15	0x3f159289	0.5842672
16	0x3e20bb84	0.15696532
17	0xbead6b6f	-0.33871028
18	0x3eafcdef	0.34336802
19	0x3f413ae9	0.75480515
20	0xbe4f853a	-0.20265666
21	0x3eaa34f3	0.33243522
22	0x3e7645d7	0.2405008
23	0xbea1ab18	-0.31575847

weight f4 [24, 12, 4, 4]
0	0xbc4ffbb0	-0.012694284
1	0xbc829e6b	-0.01594468
2	0x3d815751	0.063154824
3	0x3da6b349	0.08139665
4	0x3e082773	0.13296299
5	0xbdde4954	-0.1085383
6	0xbbd9e34d	-0.006649411
7	0xbdc757c8	-0.0973354
8	0xbe4491c8	-0.19196236
9	0xbdb0e8b5	-0.08638135
10	0xbe3eb4a3	-0.18623595
11	0x3cebd318	0.02878718
12	0x3d5aa686	0.053381465
13	0xbda04670	-0.07825935
14	0x3d1c06b7	0.03809234
15	0xbae3481b	-0.0017340215
16	0x3dbabff1	0.09118641
17	0xbdc72c90	-0.097252965
18	0xbd8b0127	-0.06787329
19	0xbcd52820	-0.02602011
20	0xbe0df3f0	-0.13862586
21	0xbc2b1aab	-0.01044337
22	0x3c0c4767	0.0085619455
23	0x3d1539be	0.03643202
24	0x3e4bd583	0.19905667
25	0xbeea6007	-0.45776388
26	0xbbddc42f	-0.0067677717
27	0xbe983a52	-0.29731995
28	0xbd55c10f	-0.05218607
29	0xbe91707d	-0.28406134
30	0xbdc49844	-0.09599355
31	0xbc6ff8a3	-0.014646682
32	0xbdb4d381	-0.08829404
33	0x3c5163e8	0.012780167
34	0x3e2e4c9b	0.1702141
35	0xbd0859fb	-0.033288937
36	0xbe18ba38	-0.14914787
37	0xbcc5580d	-0.024089837
38	0xbe08ece9	-0.13371624
39	0xbc593f8a	-0.013259778
40	0xbe0bff07	-0.13671504
41	0xbcb88f57	-0.022529287
42	0x3e376e4e	0.17913172
43	0x3d2c48ac	0.042061493
44	0xbd6fdf0c	-0.058562323
45	0xbc7b3052	-0.015331345
46	0xbdcdaf27	-0.10043173
47	0x3d12127a	0.035662152
48	0x39eeb654	0.00045530742
49	0xbe00a8a7	-0.12564336
50	0xbd619be2	-0.055080302
51	0x3c402ab1	0.011728928
52	0xbd3ecca8	-0.046581894
53	0xbdda733e	-0.10666512
54	0xbdc330fa	-0.09530826
55	0x3da74d43	0.081690334
56	0xbd29bda5	-0.041440625
57	0xbe82e329	-0.25563934
58	0xbe08d1e4	-0.13361317
59	0xbd81bc87	-0.06334787
60	0xbd0465c1	-0.032323603
61	0xbe1562e5	-0.14588507
62	0xbe0c5746	-0.13705167
63	0xbce6de2d	-0.028182114
64	0xbd4fb3fd	-0.05070876
65	0xbd17db98	-0.037074655
66	0xbce73065	-0.028221318
67	0xbc640f47	-0.013919658
68	0x3e831213	0.25599727
69	0xbd9f5c85	-0.077813186
70	0xbb93402a	-0.004493733
71	0x3d3c9829	0.04604355
72	0xbc97d742	-0.01853526
73	0x3b72cd00	0.003704846
74	0x3cca8ace	0.02472439
75	0xbd1aa4c2	-0.03775478
76	0x3e230f77	0.15923868
77	0xbc376bd7	-0.011195145
78	0x3d866577	0.06562322
79	0xbc6e8369	-0.014557698
80	0x3cb0e676	0.021594267
81	0x3d7c9454	0.061664894
82	0x3ccc9744	0.024974473
83	0x3e41dfe7	0.18933068
84	0xbbaba7a0	-0.0052384883
85	0xbdf7cead	-0.12099967
86	0xbd8b34df	-0.06797194
87	0x3e18e416	0.14930758
88	0x3caaebc4	0.020864375
89	0xbe0d75dc	-0.13814491
90	0x3b2e23d0	0.002657164
91	0xbe1ca321	-0.15296604
92	0xbd36352f	-0.044484314
93	0x3d4f9fbc	0.050689444
94	0x3ce75324	0.028237887
95	0x3d0134b1	0.03154439
96	0x3a7307c6	0.00092708727
97	0x3d222851	0.03958923
98	0x3da25263	0.0792587
99	0x3ce77932	0.028256033
100	0x3d1c0233	0.038088035
101	0xbd8aaa7e	-0.067708
102	0x3e12ca7a	0.14335051
103	0xbde15951	-0.11003364
104	0xbd0c3b16	-0.034236036
105	0x3e1d7c83	0.15379529
106	0x3d8775e9	0.066142865
107	0x3e4a684c	0.19766349
108	0x3d27e076	0.040985547
109	0x3c93b928	0.018032625
110	0x3db10002	0.086425796
111	0x3d81369c	0.06309244
112	0x3b00d4cc	0.0019658087
113	0xbdee9315	-0.116491474
114	0x3d9ac511	0.07557119
115	0xbd933ec3	-0.07189705
116	0xbe062cff	-0.13103102
117	0xbd8d9e6a	-0.06914981
118	0xbdf84db7	-0.12124198
119	0xbd0a47c7	-0.03375986
120	0xbb5cb284	-0.003367574
121	0xbe74aba2	-0.23893598
122	0xbe89ae58	-0.26890826
123	0x3d076640	0.033056498
124	0xbd9a0889	-0.07521159
125	0xbbe86f7e	-0.007093369
126	0xbcfbccb6	-0.030737262
127	0xbd971014	-0.073761135
128	0xbcd81e2a	-0.02638157
129	0xbc2e1034	-0.01062398
130	0x3c849602	0.01618481
131	0xbd58bcf4	-0.052914575
132	0xbda01c90	-0.07817948
133	0x3dbaf56a	0.0912884
134	0x3d41b35a	0.047290184
135	0x3d24bd23	0.040219437
136	0x3c35cf63	0.011096808
137	0x3d846b4a	0.06465776
138	0x3d542837	0.051796164
139	0x3cbf365f	0.023341356
140	0x3cde8983	0.02716518
141	0x3d85be6f	0.06530463
142	0x3da4c508	0.08045393
143	0x3c5f88e1	0.013643474
144	0x3dcf97cc	0.10136375
145	0x3c11f2f4	0.008908022
146	0xbcdfa36a	-0.027299602
147	0xbc809f68	-0.01570101
148	0x3dbd92f4	0.09256545
149	0x3c005660	0.007833093
150	0x3e697975	0.22800238
151	0x3de12bb2	0.10994662
152	0xbdd0c9de	-0.10194753
153	0x3c74df11	0.014945761
154	0x3c96c9b6	0.01840673
155	0xbc32b4ef	-0.010907396
156	0x3a1c576a	0.00059639534
157	0xbe38e94a	-0.18057743
158	0x3cafbd9d	0.02145272
159	0x3d0bb8f8	0.034111947
160	0x3da0e4dd	0.07856152
161	0x3df74087	0.120728545
162	0xbd5e26c2	-0.05423618
163	0x3c864a92	0.01639298
164	0x3ddeeed7	0.10885399
165	0x3c64ce3c	0.013965186
166	0xbd550008	-0.052001983
167	0x3b276a5c	0.0025545573
168	0xbdaeb285	-0.08530144
169	0x3d2bd2ea	0.04194919
170	0xbdfd00d1	-0.12353671
171	0x3d5cdd34	0.053921893
172	0x3d0124b7	0.031529155
173	0x3cf0ca9a	0.029393483
174	0x3d3da2e6	0.04629793
175	0x3c8f6a96	0.017506879
176	0x3d1539b6	0.03643199
177	0xbad5fe34	-0.0016326369
178	0xbd61c3d5	-0.0551184
179	0xbca34aeb	-0.019933185
180	0x3d38b08d	0.045090247
181	0x3c7f58cc	0.015585136
182	0xbd326df2	-0.043561883
183	0xbcb2cad2	-0.021825228
184	0x3cfe5233	0.031045055
185	0xbd57b73e	-0.052664988
186	0x3ce05102	0.027382378
187	0xbc43f82f	-0.011961027
188	0xbc8e4248	-0.01736559
189	0x3d6a6469	0.057224665
190	0x3d53d7e4	0.05171956
191	0xbce7db78	-0.028302893
192	0xbc4de8c9	-0.012567707
193	0x3d85dc58	0.06536168
194	0x3d8de65f	0.069287054
195	0x3dae18d5	0.0850083
196	0x3d1dd2b8	0.038531035
197	0xbdd7422f	-0.105106704
198	0xbd9630f9	-0.073335595
199	0x3ced57d9	0.028972553
200	0x3b462f31	0.003024053
201	0xbe21bc45	-0.15794475
202	0xbd922a0e	-0.071369275
203	0x3d220fa2	0.03956569
204	0x3d2f4b65	0.04279651
205	0x3d029021	0.031875733
206	0xbca24009	-0.019805925
207	0x3ded299f	0.11580204
208	0x3d80a65a	0.06281729
209	0x3e86457d	0.2622489
210	0x3b8fb5cf	0.004385687
211	0xbd85edeb	-0.0653952
212	0xbdb412f6	-0.08792679
213	0xbe9512ef	-0.29116008
214	0x3cf2ff40	0.029662728
215	0x3dc59bb5	0.096488394
216	0xbe5ba7fa	-0.21450797
217	0xbe454cf9	-0.19267644
218	0xbddc5c63	-0.10759809
219	0x3cce691b	0.025196603
220	0x3d5f74c7	0.054554727
221	0xbd4caab0	-0.049967468
222	0x3c5b92f8	0.013401739
223	0x3d952049	0.072815485
224	0xbe92376c	-0.2855791
225	0xbda446b4	-0.08021298
226	0xbd92d5b7	-0.07169669
227	0x3c0a85a5	0.008454715
228	0xbe7d6e0d	-0.24749012
229	0xbd16277b	-0.036658745
230	0x3e78944f	0.24275325
231	0xbc59a3f9	-0.013283723
232	0xbd916a35	-0.071003355
233	0xbcf83ddf	-0.03030294
234	0xbf384aab	-0.71988934
235	0xbdb49cac	-0.08818945
236	0xbd9e3465	-0.07724837
237	0x3d5c6b7b	0.05381344
238	0xbe0ef93a	-0.1396226
239	0x3d0b99d1	0.034082238
240	0x3e2eeb47	0.17081939
241	0xbd01a7ee	-0.03165429
242	0xbc8d35a1	-0.017237486
243	0x3c165e39	0.009177738
244	0xbd3ac9fe	-0.04560279
245	0x3d9ba98a	0.076006964
246	0xbdb8ba35	-0.09019891
247	0xbd5e6b4b	-0.05430154
248	0xbe41f5e9	-0.18941464
249	0xbeeee59e	-0.4665956
250	0xbdb9822d	-0.09058032
251	0x3c7fc2a7	0.015610374
252	0xbd9378e4	-0.072007924
253	0xbcc87533	-0.024469947
254	0x3d0b1fdc	0.03396593
255	0x3d266076	0.040619336

bias f4 [12]
0	0x3f07f184	0.531029
1	0xbea85b88	-0.32882333
2	0xbe610896	-0.21975932
3	0xbecae3eb	-0.39627013
4	0x3d0af09a	0.03392086
5	0x3f794e86	0.9738544
6	0xbed545e3	-0.41654882
7	0xbefaccdc	-0.4898442
8	0xbf3c47e8	-0.7354722
9	0x3f2f3a15	0.68448
10	0x3d0af1da	0.033922054
11	0x3c9b2653	0.018939173

weight f4 [12, 3, 4, 4]
0	0x3d04abfb	0.032390576
1	0xbdc473cf	-0.09592401
2	0xbe70fabd	-0.23533149
3	0xbdf6977b	-0.12040611
4	0xbdeddc5e	-0.11614297
5	0xbec2ab62	-0.3802138
6	0xbf1ae760	-0.605093
7	0xbeb68a5f	-0.35652444
8	0xbe337c66	-0.17527923
9	0xbeb6a64e	-0.35673755
10	0xbedeb358	-0.43496203
11	0xbe7fa0f3	-0.24963741
12	0xbd4b4660	-0.04962766
13	0xbdc9242a	-0.09821351
14	0xbd98c09d	-0.07458613
15	0xbcdd69ee	-0.02702805
16	0x3d861317	0.0654661
17	0x3c62c882	0.01384175
18	0xbdda1cbd	-0.10650013
19	0xbd8fcc8d	-0.07021437
20	0x3d04b8af	0.03240269
21	0xbd945d06	-0.07244305
22	0xbe8979b2	-0.2685066
23	0xbe323080	-0.17401314
24	0xbb3bff04	-0.0028685937
25	0xbd226145	-0.039643545
26	0xbdf8b63b	-0.12144133
27	0xbda635a3	-0.08115699
28	0x3bfa91a1	0.007646755
29	0x3cc4199d	0.023937995
30	0x3cdc0cf2	0.026861642
31	0x3c83a0f0	0.016067952
32	0x3d40bfb1	0.04705781
33	0x3da1a914	0.07893577
34	0xbd79d17d	-0.0609908
35	0xbd8e4f60	-0.06948733
36	0x3cef3e28	0.029204443
37	0x3d57af9f	0.05265772
38	0xbe577f5b	-0.21044676
39	0xbe65d4cd	-0.22444458
40	0x3ac12007	0.0014734276
41	0x3dbb70ba	0.0915236
42	0xbd36a6b2	-0.044592567
43	0xbe07b6de	-0.13253352
44	0xbcc24977	-0.023716671
45	0x3db2ebfa	0.08736415
46	0x3d96b70e	0.07359134
47	0xbc474c64	-0.012164209
48	0xba91f0ec	-0.0011134422
49	0x3d7bde28	0.06149116
50	0xbe202cef	-0.15642141
51	0xbe159304	-0.14606863
52	0x3dde0458	0.10840672
53	0xbdc436d0	-0.09580767
54	0xbe982478	-0.29715323
55	0xbea1720e	-0.3153233
56	0x3db98fe4	0.09060648
57	0xbed2c44f	-0.41165397
58	0xc0ed41e5	-7.414294
59	0xbf2c4cd5	-0.67304736
60	0x3c774a09	0.015093335
61	0xbe4e3ed9	-0.20141162
62	0xbeebadbd	-0.4603099
63	0xbeb604f0	-0.35550642
64	0x3a033c8f	0.00050062774
65	0x3d4c543f	0.04988503
66	0xbe24391d	-0.16037412
67	0xbde8f1da	-0.113742545
68	0x3daabe69	0.08337099
69	0xbdbc5396	-0.0919563
70	0xbe978abf	-0.29598042
71	0xbe436ad7	-0.19083725
72	0x3d7d0efc	0.06178187
73	0xbede2195	-0.43384996
74	0xbfd4a4bb	-1.6612772
75	0xbee8ad47	-0.454447
76	0xbbed9347	-0.007250223
77	0xbe5d5a88	-0.21616566
78	0xbf05228c	-0.5200584
79	0xbe9cb7c3	-0.3060895
80	0x3d0e8c89	0.034801994
81	0x3d80f6eb	0.06297096
82	0xbdafc7be	-0.0858302
83	0xbddf445b	-0.1090171
84	0x3d9fe2dc	0.07806942
85	0xbdaab336	-0.08334963
86	0xbdb513ce	-0.08841668
87	0xbe28aa51	-0.1647122
88	0x3c3f1b94	0.01166429
89	0xbed76bed	-0.42074528
90	0xbe5f78a3	-0.21823363
91	0xbeccaeca	-0.39977103
92	0xbd2398c7	-0.03994062
93	0xbe80700a	-0.2508548
94	0xbeb5947c	-0.35464847
95	0xbeaf1122	-0.3419276
96	0x3ee6a968	0.45051122
97	0x3f513bad	0.81731683
98	0x3f3bc048	0.7334027
99	0x3f966c9d	1.1751896
100	0x3b82a5be	0.003987043
101	0x3dad0fed	0.08450303
102	0x3e48c21c	0.19605297
103	0x3dfc3b32	0.12315978
104	0xbe334f85	-0.17510803
105	0xbe199548	-0.14998353
106	0xbdd31e45	-0.10308508
107	0xbe0bf6e7	-0.13668405
108	0xba1bfc4b	-0.00059503753
109	0xbcb9e9a6	-0.02269442
110	0xbd4490b2	-0.047989555
111	0xbc36a682	-0.011148097
112	0xbfe6cc04	-1.8031011
113	0xbeae6e47	-0.3406851
114	0x3f220e1c	0.6330278
115	0x3f4235d1	0.7586337
116	0xbcfe235d	-0.031022722
117	0x3ddf177b	0.108931504
118	0x3e37a233	0.17932968
119	0x3da5a4c3	0.080880664
120	0xbe4ab7d9	-0.19796695
121	0xbe238deb	-0.15972106
122	0xbdf4bf72	-0.11950578
123	0xbe058da5	-0.13042314
124	0xbc9a5cae	-0.018843021
125	0xbd089316	-0.033343397
126	0xbd9c7a37	-0.07640498
127	0xbc0226c9	-0.007943817
128	0x3f1ba919	0.608049
129	0x3f287480	0.65802765
130	0x3f4d407f	0.8017654
131	0x3f56f91e	0.8397387
132	0x3df3ebfd	0.119102456
133	0x3e67822d	0.22608252
134	0x3ec296a1	0.38005546
135	0x3ec52b27	0.38509485
136	0xbe73c1ff	-0.23804472
137	0xbe2ba3df	-0.1676173
138	0xbddf5f58	-0.10906857
139	0xbe1047e3	-0.14089923
140	0xbd50cec7	-0.05097845
141	0xbcc590e6	-0.024116945
142	0xbcfa7e5e	-0.030577835
143	0xbd0fa1bb	-0.035066348
144	0xbda2f39e	-0.079566225
145	0xbe9cd874	-0.3063389
146	0xbe9de6a4	-0.30840027
147	0xbd476354	-0.04867871
148	0xbe22e893	-0.15909033
149	0xbf88ccdc	-1.0687518
150	0xbf5b88e5	-0.8575576
151	0xbd9791c7	-0.07400852
152	0xbc4073d3	-0.011746365
153	0xbe9a3645	-0.3011953
154	0xbe555171	-0.20831849
155	0x3c75af7c	0.014995452
156	0x3dbc62e0	0.091985464
157	0x3dd97a36	0.10619013
158	0x3dacab49	0.084311076
159	0x3d5407d5	0.05176528
160	0xbd7169dd	-0.05893885
161	0xbe8b86a5	-0.27251163
162	0xbe8b06b6	-0.27153558
163	0xbc7141bb	-0.014725144
164	0xbe24396f	-0.16037534
165	0xc11576cd	-9.341504
166	0xc08c3186	-4.3810453
167	0xbdaf2b7d	-0.085532166
168	0xbd1d3839	-0.038383696
169	0xbe9fc603	-0.31205758
170	0xbe76a7e5	-0.24087484
171	0x3b86c950	0.004113354
172	0x3db9e701	0.090772636
173	0x3db79587	0.08964067
174	0x3daf118c	0.08548269
175	0x3d3a0246	0.045412324
176	0xbdbdce3a	-0.0926785
177	0xbe9dbb68	-0.30807042
178	0xbe7f6b45	-0.24943264
179	0xbca7c360	-0.020478904
180	0xbdf0b191	-0.11752618
181	0xbe94415e	-0.2895612
182	0xbe6d1eca	-0.23156276
183	0xbd529887	-0.051414993
184	0xbd5863a3	-0.052829396
185	0xbea3ac68	-0.31967473
186	0xbe40070f	-0.18752693
187	0x3c9f1170	0.019417495
188	0x3de1a3ba	0.110175565
189	0x3d8a5b70	0.067557216
190	0x3d64bddc	0.055845127
191	0x3d870f03	0.0659466
192	0xbaedf131	-0.0018153546
193	0xbcdfa6f6	-0.027301293
194	0xbd02503e	-0.031814806
195	0x3e0c08ee	0.13675281
196	0xbcb2e28a	-0.021836538
197	0x3d102a02	0.03519631
198	0xbc0ecd82	-0.008715989
199	0x3d5da89a	0.05411587
200	0xbd07f837	-0.0331957
201	0xbcdd9969	-0.02705069
202	0x3d512310	0.05105883
203	0x3dc73a8d	0.097279646
204	0xbd8216fc	-0.0635204
205	0xbda1382d	-0.07872043
206	0x3bc95c6f	0.006145052
207	0x3e02697f	0.12735556
208	0x3dc0edbd	0.09420345
209	0x3d95691a	0.07295437
210	0x3e4d743f	0.20063876
211	0x3e11bcdd	0.14232202
212	0x3e34f33c	0.17670912
213	0x3e44577d	0.19173999
214	0x3e562607	0.20912944
215	0x3e4ba43f	0.19886874
216	0x3dd70c4a	0.10500391
217	0x3df3f4d1	0.119119294
218	0x3ea0119a	0.3126343
219	0x3e302248	0.17200577
220	0x3bc4b4cf	0.0060029994
221	0x3cbede01	0.02329922
222	0x3e8117cb	0.25213465
223	0x3dfcd557	0.12345379
224	0xbd2392c1	-0.039934877
225	0xbe7f484b	-0.24929921
226	0xbe8b3b15	-0.27193514
227	0xbe05ae5d	-0.13054796
228	0xbe10db85	-0.1414624
229	0xbe9439f4	-0.28950465
230	0xbec5afcd	-0.38610688
231	0xbe8017c8	-0.25018144
232	0xbe27e391	-0.16395403
233	0xbebac7f7	-0.36480686
234	0xbe93fb79	-0.28902796
235	0xbe5f62f0	-0.21815085
236	0xbe053658	-0.13009012
237	0xbe99898e	-0.29987758
238	0xbe63fa1f	-0.22263382
239	0xbd55a063	-0.05215491
240	0xbdca1602	-0.09867479
241	0xbde173f0	-0.110084414
242	0xbd32ac34	-0.043621257
243	0xbd08c499	-0.033390615
244	0xbe3ea121	-0.18616153
245	0xbe360116	-0.17773852
246	0xbd14c404	-0.036319748
247	0xbcba277b	-0.022723904
248	0xbea39448	-0.31949067
249	0xbee5e7e2	-0.44903475
250	0xbe8855b8	-0.26627898
251	0xbe0a9ce2	-0.13536409
252	0xbe561ac0	-0.20908642
253	0xbeb67926	-0.35639304
254	0xbe8b3333	-0.271875
255	0xbdfa6296	-0.12225835

bias f4 [3]
0	0xbf308b96	-0.6896299
1	0xbc80970f	-0.01569703
2	0xbdb75a74	-0.089527994
